Assets/NeuralNetworks/NN/ReinforcementLearning/CarBehavior.onnx (onnx, 309408 bytes, 11 tensors)

network_body.observation_encoder.processors.0.normalizer.running_mean f4 [28]
000000 10 6e e0 3e 00 00 00 00 91 c5 0f 3f 18 bb 2c 3f
       0.4383397 0.0 0.5616084 0.6747298
000010 fd 11 44 3f 00 00 00 00 9f 5b 6f 3e 24 02 18 3f
       0.7658995 0.0 0.23374794 0.59378266
000020 98 e9 4d 3f 00 00 00 00 1e 48 48 3e ab 09 11 3f
       0.8043456 0.0 0.1955876 0.5665538
000030 55 e4 79 3f 00 00 00 00 2d c6 be 3c a5 48 c7 3e
       0.9761403 0.0 0.023287857 0.3892261
000040 d1 84 62 3f 00 00 00 00 e4 a3 eb 3d 56 46 d6 3e
       0.8848391 0.0 0.11505869 0.41850537
000050 99 58 79 3f 00 00 00 00 05 3e ce 3c a6 ab ca 3e
       0.97400814 0.0 0.025176058 0.39584082
000060 95 fe 5b 3f 00 00 00 00 04 de 0f 3e 10 5f eb 3e
       0.85935336 0.0 0.14049536 0.45970964

network_body.observation_encoder.processors.1.normalizer.running_mean f4 [10]
000000 80 ae 13 3b f8 0d 25 bf 3f a1 54 36 83 ae f7 bd
       0.002253443 -0.6447444 3.168432e-06 -0.12093832
000010 90 f0 2d 40 f8 61 70 41 f7 45 79 bd 74 d9 24 bb
       2.7178078 15.023918 -0.06085774 -0.0025154026
000020 5e d6 c5 be 5d 18 40 3f
       -0.38640112 0.75037175

network_body.linear_encoder.seq_layers.0.weight f4 [256, 38]
000000 a6 c8 95 3d f1 fd b8 bc 7c d8 0c 3d d9 58 df 3e
       0.07313661 -0.022582026 0.034386143 0.43622473
000010 5e 13 52 be ff 32 71 bd b6 8a 31 be 6f b4 a8 3e
       -0.205152 -0.058886524 -0.1733807 0.3295016
000020 25 b5 f5 bd 82 6d 26 3d c4 57 59 be b9 98 f8 bd
       -0.11997441 0.04063178 -0.21224886 -0.121385045
000030 81 fc 10 3e c7 af 8a 3c 26 05 b5 bd 14 9a b3 3d
       0.14158823 0.01692952 -0.088388726 0.087696224
000040 d5 a3 1c 3d e6 fb 95 be c5 91 10 be 5c fd ce bd
       0.03824218 -0.29293746 -0.14118107 -0.10106918
000050 18 53 ba 3d 95 3c 2c be d3 c0 84 bd 15 a9 23 be
       0.0909788 -0.16819985 -0.06482091 -0.15982468
000060 36 7d 8a 3e f7 aa cd 3d 06 16 86 be 8e a3 27 3d
       0.27048653 0.100423746 -0.26188678 0.040927462
000070 2c 6e 46 bd 32 28 09 be 0c 2c 89 3d 6d 64 0b 3d
       -0.04844491 -0.1339424 0.066978544 0.03403132
000080 cf 85 1a be fb 00 4d bd 29 ff 26 be 2c 95 b5 bc
       -0.15090106 -0.050049763 -0.16308273 -0.022165857
000090 fc af 1a be 0a 84 94 3e d2 e7 e5 3c 4e a4 a9 3c
       -0.15106195 0.29006988 0.028064642 0.02070823
0000a0 9a 3b 18 be 75 62 66 3d b8 97 87 bd 9e 85 0c 3e
       -0.14866486 0.05624624 -0.06620735 0.13722846
0000b0 f0 85 14 be 6e 52 a9 3c d9 3d d5 3d f8 dc 5f bd
       -0.14504218 0.020669188 0.10412187 -0.05465409
0000c0 28 08 6c 3e 26 9e 9e 3d 98 50 28 be 7b 84 11 be
       0.23049986 0.07745008 -0.16436994 -0.14210694
0000d0 b4 de ab bd 86 f4 e2 3d 67 b3 89 3d b3 69 78 3e
       -0.083920866 0.110817954 0.067236714 0.24259071
0000e0 31 70 94 3c 22 ce 62 3e ea f0 f3 3e 1d 2f 1a be
       0.018119903 0.22148946 0.4764474 -0.15057035
0000f0 37 d2 2e bd 20 b8 91 be 48 9c 36 be c7 6d cb 3d
       -0.042680945 -0.2846079 -0.17833054 0.09933048
000100 2a 74 95 3e 42 b2 11 3f 6c 13 fd 3d 1b ef 2d be
       0.2919019 0.56912625 0.1235722 -0.16985743
000110 0f c3 70 3e 34 af 58 3c 20 ca 95 3c 27 1e 1a bd
       0.23511909 0.013225365 0.018284857 -0.03762641
000120 7e 8d 63 3d 85 e5 71 bd 93 d5 1d be af 60 76 3e
       0.05555486 -0.059056778 -0.15413503 0.2406032
000130 37 d8 86 3c a8 79 90 3e df 2f 97 3e de 5d a9 3d
       0.016460521 0.28217816 0.2952871 0.08269857
000140 97 05 49 bc 41 f5 9a bd 96 61 07 3e 05 87 2d bd
       -0.012269399 -0.0756631 0.1322082 -0.042365093
000150 1f 68 ce bd fc be 2d 3d c0 59 4b 3c 75 04 96 bd
       -0.10078453 0.042418465 0.012411535 -0.07325069
000160 25 d7 9a be ae 56 ef 3d 58 7b b0 3d d1 ff 9a 3c
       -0.30242267 0.11686455 0.08617276 0.01892081
000170 54 d1 98 3e c5 db 9a 3c ae e0 4d be ba cb 8c 3e
       0.29847205 0.018903622 -0.2010524 0.2749918
000180 0d 85 02 3f e7 4a 1c 3e 7d 9e 99 bc f9 88 e0 bd
       0.5098427 0.15262948 -0.01875233 -0.109636255
000190 6e 8d 82 be 0f d0 b2 3d 05 b4 0e bd 9d ba 1a be
       -0.25498527 0.0873109 -0.03483965 -0.1511025
0001a0 64 ad c3 bd 26 ba a9 3e 7d c1 83 bd 79 8d d3 3e
       -0.09554556 0.33149832 -0.06433389 0.41318873
0001b0 8b 69 3d 3d 69 59 df 3e 87 1b 50 bb 56 6f ee bd
       0.04624323 0.43622902 -0.0031754689 -0.116423294
0001c0 31 0d 85 3d fd a5 e9 bd 97 c6 b9 bd 02 ef 90 3d
       0.06496657 -0.11408613 -0.09071081 0.07076837
0001d0 86 ab 13 be 0d f4 45 3d d6 7d 11 be 1c 76 bf be
       -0.144209 0.048328448 -0.14208159 -0.37394798
0001e0 45 af 86 be 61 14 d6 bd 92 21 0c 3e 07 67 4d be
       -0.26305595 -0.10453106 0.13684681 -0.20058833
0001f0 d1 8c 7a 3e 75 7f dd bd 1d 05 95 be b5 2b 15 3d
       0.2446778 -0.10815326 -0.29105464 0.036418635
000200 d3 92 83 be 5b 41 f3 bd da 6c 94 3d c2 4e 36 be
       -0.25697955 -0.118777 0.07247324 -0.17803481
000210 99 48 8a bc 2d 01 5d be aa 45 83 3d ba ef 46 bd
       -0.01688032 -0.2158248 0.06409772 -0.048568465
000220 05 58 83 3a 3f 76 a6 bc 5f ca a8 be 45 bb 1a 3e
       0.0010020739 -0.020320056 -0.32966897 0.151105
000230 ab 11 1b bd 5f 15 48 bd 6c e7 d9 bd 18 d3 85 be
       -0.037858646 -0.048848506 -0.10639843 -0.26137614
000240 e5 fc 33 3e 19 2f a4 ba f8 74 9e bd 51 b0 00 3e
       0.1757694 -0.0012526243 -0.07737154 0.1256726
000250 0c 62 fd bd 2b 50 91 bd 59 ac 75 3c 01 9e 32 bd
       -0.123722166 -0.07095369 0.014994704 -0.043607716
000260 05 f3 a0 38 7c 70 f2 3c 50 e3 34 3e eb 5a 53 3d
       7.6746604e-05 0.029594652 0.17664838 0.051600378
000270 73 0a 80 be b5 c8 fc bd 6e 03 3b 3e ae 81 03 be
       -0.25007972 -0.12342969 0.18263027 -0.12842438
000280 54 f9 8c 3e e8 15 24 be a5 ed a9 bd df 85 2d be
       0.27533972 -0.16023982 -0.0829728 -0.16945599
000290 0e c8 26 3d c1 e9 b8 bc 7f 09 e0 bd f4 df 7b be
       0.04071813 -0.0225724 -0.10939311 -0.2459715
0002a0 88 01 28 bd d8 fa ae 3d 13 7e 42 3e ce 8a a7 3e
       -0.041017085 0.085439384 0.18993406 0.32723087
0002b0 b7 9f a8 be b1 24 93 3c 9c a9 e2 3a 2b d7 b0 bd
       -0.32934353 0.017961832 0.0017292979 -0.0863479
0002c0 4a 3a 7d 3d f7 b6 6a be 90 7c bc 3e 15 96 93 3e
       0.061823167 -0.22921358 0.36813784 0.2882544
0002d0 d8 bc 99 3d c0 59 23 be 48 13 47 3e ec 45 2b be
       0.07506722 -0.15952206 0.19440949 -0.16725892
0002e0 8c 60 f0 bd 4a b5 ea 3c 19 d6 82 bd 40 2b fb 3d
       -0.11737165 0.028650898 -0.06388492 0.12264109
0002f0 c7 e9 96 3e f4 0e 79 bd 67 31 2d be 9d 83 75 3e
       0.29475233 -0.060805276 -0.16913377 0.23975988
000300 c2 97 fe 3c 3a b0 e5 bd 45 f3 c4 bd 7a c0 f2 3d
       0.031078223 -0.11215253 -0.096167125 0.11853118
000310 f6 2e 69 be f5 dd aa 3d 78 c2 2f be 84 e1 f5 bd
       -0.2277182 0.08343116 -0.17164028 -0.12005904
000320 13 21 5f bb 79 6d 6a 3d 71 92 81 3d e8 ad d9 bc
       -0.0034046813 0.057233308 0.063267596 -0.026572183
000330 92 15 03 3e 6f 63 86 3d a4 36 bf 3d 32 a6 54 be
       0.12801197 0.06561934 0.09336594 -0.20766523
000340 8a 6a 97 bd aa b7 65 3d 81 f8 0e 3e 21 52 18 3b
       -0.073933676 0.05608336 0.13961984 0.0023242312
000350 fd cc 4e 3c 52 29 a0 bc 16 b6 2f 3e 50 e2 82 3d
       0.012622115 -0.019550953 0.17159304 0.06390822
000360 b0 93 85 be 53 b5 2b 3e fd e0 d5 3b cc c7 14 3e
       -0.2608924 0.16768388 0.006527065 0.14529341
000370 11 65 d3 bd 5e b2 3b bc c7 c3 3f 3c 53 b1 85 3e
       -0.10322011 -0.0114561 0.011704392 0.2611185
000380 07 85 c0 bd b2 d9 b3 bd 50 9d bd bd 00 a8 68 3e
       -0.09400373 -0.087817565 -0.092585206 0.22720337
000390 7d 56 12 3e 58 7e 15 3e ac e3 75 3d c6 7c 89 3e
       0.14290805 0.14598978 0.060031578 0.26853007
0003a0 93 6a 32 be b8 8f c5 3d 5c 60 3d 3e 64 ec 2b 3d
       -0.17423467 0.09646553 0.1849379 0.041973487
0003b0 19 37 55 be cc 24 1b 3e a6 1c ad 3d b7 ac 74 3e
       -0.208218 0.15150756 0.0845273 0.2389401
0003c0 ba ee 18 3e bd d1 77 3d 3f 66 b0 be 6e e9 24 bd
       0.14934817 0.060502756 -0.34453008 -0.04026168
0003d0 aa 74 a2 3e aa f4 e8 3d fe 2a 3f 3e fa 10 24 3d
       0.31729633 0.11374791 0.18668744 0.040055253
0003e0 a5 18 55 bc b8 9d c1 bd bc 71 8e 3d 22 4b 4d bd
       -0.013006364 -0.094539106 0.06955287 -0.05012048
0003f0 0b c7 5f 3e 4b b7 0d 3e 48 f7 1f be 27 37 05 3d
       0.21853273 0.13839452 -0.15621674 0.0325233

network_body.linear_encoder.seq_layers.0.bias f4 [256]
000000 19 81 66 3d f1 6e f0 3c 3a ba 34 bd 0a 45 04 3c
       0.05627546 0.029349776 -0.044122912 0.008073101
000010 9a d3 41 3d 4c 87 5a 3d ca 17 5b 3d c3 33 ba 3c
       0.04732094 0.053351685 0.053489484 0.02272976
000020 96 00 ed 3c 88 47 3c bd 39 44 78 3d b7 ec 28 3d
       0.028930943 -0.045966655 0.060611937 0.041241374
000030 4e 5e 32 3d 6a 2a e3 bb 88 de db 3c 8e 0c 75 3c
       0.043546967 -0.0069325464 0.02683951 0.014956607
000040 50 da c4 3b 6a b3 4a 3d 62 c9 cb 3c 3c 83 cf bc
       0.00600747 0.04948751 0.0248763 -0.025331132
000050 e2 22 3b 3d ca a7 19 3d 5d 7a e3 3c b0 f8 d1 3c
       0.045687564 0.03751353 0.027768308 0.025631279
000060 73 a4 15 3d 58 12 ce bb 64 5a 28 3d f3 e1 80 3d
       0.036533784 -0.006288808 0.04110183 0.062930964
000070 9d b3 0b 3d 71 38 eb bc 99 a4 34 3d d6 36 a3 ba
       0.03410684 -0.028713437 0.044102285 -0.0012452255
000080 65 a0 bb 3c 88 77 d1 3c 54 6c 25 3d 67 ec df 3c
       0.02290363 0.025569692 0.040386513 0.027334405
000090 4c ea 35 3d 7e 49 32 bd 4e 89 30 3d 8d c2 5c 3d
       0.044412896 -0.04352712 0.043099694 0.053896476
0000a0 0d a3 bb bc d5 a8 3b 3d 25 a6 02 3d c6 48 44 3c
       -0.022904897 0.045815308 0.03189673 0.011980241
0000b0 be 43 03 3d 8b 9d 35 bd 2c a0 7a bb ce a8 26 3c
       0.032047026 -0.044339698 -0.0038242443 0.010172082
0000c0 57 14 ff 3c c9 91 7d 3d 52 16 69 3d 56 a5 a9 3c
       0.031137628 0.06190661 0.056906052 0.020708721
0000d0 3e 87 55 3d 3a 6a 0e bd b6 4c 28 3c 87 b7 7a bc
       0.05213093 -0.034769274 0.010272196 -0.015302545
0000e0 71 60 16 bd b8 2b 29 3d e1 eb 38 bc 8f 65 1f 3c
       -0.036713067 0.04130146 -0.011286707 0.009728803
0000f0 4b 58 df 3c 37 09 6a bc 9c 95 cf 3b bc 18 47 3d
       0.027263781 -0.014284424 0.0063349735 0.048607573
000100 b1 eb ee 3b 1c 0f d2 bc f3 93 dd 3c b0 87 33 bd
       0.00729128 -0.02564197 0.027048087 -0.043830574
000110 69 8d 63 3c a6 f2 23 bd 8d fe ce 3c 7e 9f 4e 3d
       0.013888695 -0.04002633 0.025267864 0.050445072
000120 cf 76 56 3d ff e5 cb bc b3 dd 8c 39 de 5c 36 3d
       0.0523594 -0.024889944 0.0002686806 0.04452216
000130 12 57 37 3c 6a eb ba 3c b8 79 2e bd 6c ea 06 bd
       0.011190193 0.022817332 -0.04259655 -0.032938406
000140 f0 b8 13 bd 72 f7 32 3d 61 f9 15 bc eb 0e 13 bc
       -0.036065042 0.043693013 -0.009153695 -0.008975725
000150 c8 1d 1c 3b 5c 88 86 3c ad be 1d 3d e3 21 3a 3d
       0.0023821462 0.016422443 0.03851192 0.045442473
000160 ac c0 80 3c 0f 10 c0 3c 90 ab 94 3d ea 37 35 3d
       0.015716873 0.023445157 0.072592854 0.044242777
000170 b2 b7 13 3d c9 25 e7 3c 9c a6 11 3d a2 23 39 bd
       0.036063857 0.02821626 0.03555928 -0.045199998
000180 86 16 23 bd 4d 76 2b bc 52 f4 db bc 4e 23 f8 3c
       -0.039816402 -0.010465217 -0.0268499 0.030290272
000190 8a 4a 63 3d f6 2d 3e bd 8c 6e 62 3d 5a bf 32 3b
       0.055491008 -0.04643055 0.055281207 0.00272747
0001a0 3e b4 22 3d e5 13 9f 3c 0c 5a 23 3d 73 d5 0e bd
       0.039722674 0.019418666 0.039880797 -0.03487153
0001b0 a3 0a 7f 3d 33 cd 30 3d 38 83 67 3c f8 e7 13 3d
       0.062266003 0.043164443 0.014130406 0.036109895
0001c0 fe 3a 28 3d 08 37 d1 bc 96 05 12 3d fe 96 de 3c
       0.041071884 -0.025538936 0.03564986 0.027171608
0001d0 31 28 e7 bb 1f 10 2d 3d b0 e4 4a 3d 7b 82 40 3d
       -0.0070543517 0.042251702 0.0495345 0.046999436
0001e0 fc d1 63 3d f8 94 68 3c 14 5f 26 bd 45 fb 29 3d
       0.05562018 0.014195673 -0.040618017 0.041499395
0001f0 fa 90 93 bb 4e ec 32 bd 16 2e 52 3d 52 40 7c 3c
       -0.0045033665 -0.04368239 0.051313482 0.0153961945
000200 a7 8c 5a bc 67 7d a2 ba 58 75 f3 bc be 09 e5 3c
       -0.013339198 -0.0012396992 -0.02971904 0.027958747
000210 39 41 7c 3d 39 10 e5 bc 26 86 dd 3c ae d8 14 3d
       0.06158564 -0.027961837 0.027041506 0.036339454
000220 e1 57 d8 3c c9 25 31 3d 86 35 6a 3c 0b 6a b4 3c
       0.026409091 0.043248925 0.014294988 0.022023221
000230 a2 65 17 3d a7 ec 18 3d e2 1f 93 bc 8c ef 09 3d
       0.03696216 0.037335064 -0.017959539 0.033675715
000240 99 0f fb 3c 90 c8 40 3d 29 53 a4 bc 20 68 81 bc
       0.030647086 0.04706627 -0.020059185 -0.015796721
000250 8d c1 00 bd 07 58 42 3d e7 12 d5 ba 38 03 33 3d
       -0.031434584 0.04744723 -0.0016256244 0.04370424
000260 da a4 9c 3c b9 5b 1a 3d b0 5e 05 3d 6c e7 a8 3c
       0.019121576 0.03768513 0.032561004 0.020618163
000270 04 ae 02 3d 50 02 2c 3d a4 f8 28 3d 47 b1 50 3d
       0.031904235 0.041994393 0.041252747 0.050950315
000280 a4 cc 1d 3c 61 83 3f 3d 0f c0 4d 3c 32 70 34 3d
       0.00963131 0.046756152 0.012557997 0.04405231
000290 df b5 b6 3c a6 ba 61 3d 80 92 c8 3c 61 a4 30 3d
       0.02230352 0.055109642 0.02448392 0.043125514
0002a0 04 7b 10 3c db 9c 69 3c db 3a 36 3d bf 3c 1e 3d
       0.008818392 0.014258589 0.044489723 0.03863215
0002b0 1f 35 75 bd 38 5c 18 bd d7 4f 3f 3d 97 84 25 3d
       -0.059865113 -0.03719732 0.046707 0.04040965
0002c0 fa f5 61 3d 16 c2 4d 3d 8a e5 33 3b 30 0f 2b 3c
       0.055166222 0.050233923 0.0027450048 0.010440633
0002d0 24 fd e3 3c 9e e2 ea bc 4f 61 39 3d 0d af 53 3d
       0.027830668 -0.028672513 0.045258816 0.051680613
0002e0 b8 62 d2 3c 4e 72 3f 3c b6 96 9b 3a 13 1c 00 bd
       0.025681838 0.011684967 0.0011870477 -0.031276774
0002f0 e4 a4 31 3d 3c 0f 2c bd ff a1 69 3d 5f 60 65 3c
       0.043370143 -0.042006716 0.057039257 0.014000027
000300 6c 62 f4 3c 75 61 1c bd c8 8e 5e 3d ed db 55 3d
       0.029832087 -0.03817888 0.054335386 0.05221169
000310 4d ce 45 3b d2 5e 28 3d d1 27 2a bd 8a 57 26 3c
       0.003018278 0.041106053 -0.041541878 0.010152707
000320 8c 89 21 3d 27 05 90 3c cd 9f 35 3d 6f 08 2f bd
       0.039437816 0.017580582 0.04434185 -0.042732652
000330 b0 80 dc 3c ac de 1c bd 6b 6c 56 3d d3 cf ee 3c
       0.026916832 -0.038298294 0.05234949 0.029151833
000340 36 f2 17 3d 12 59 48 3c 22 26 c1 3c de f1 06 3d
       0.037096225 0.012228267 0.023577753 0.032945506
000350 7e d3 99 bc ce d8 6f 3d 23 6d 4e bc 0e cc 41 3d
       -0.018777605 0.05855637 -0.012599262 0.047313742
000360 c9 86 78 3d ad 68 1d 3d 3c 96 aa 3c 46 d8 3f 3c
       0.060675416 0.038429905 0.02082359 0.011709278
000370 70 02 46 3c 7e e9 e9 3c 54 17 40 3c 7b 90 18 3d
       0.012085542 0.02855372 0.011724312 0.037247162
000380 00 b6 24 bd 6e 87 3d bc c6 80 3d 3d c9 35 11 3d
       -0.04021263 -0.0115679335 0.046265386 0.035451684
000390 fb 53 95 3d cf 87 79 3d df f7 c0 bc e5 69 93 bc
       0.07291409 0.060920533 -0.023555694 -0.01799483
0003a0 63 97 fa 3c 1b 4c 06 3d bf 39 16 3b 78 3e 42 3d
       0.030589765 0.032787424 0.0022922603 0.047422856
0003b0 8e aa 42 3d 49 29 63 3d e2 a5 fc bc a5 94 b5 3c
       0.047525935 0.055459294 -0.030840818 0.022165606
0003c0 89 fe d3 3c 4e f2 2a 3d 7b b1 6a 3d ea d7 0c 3d
       0.025878208 0.041734986 0.057298165 0.0343856
0003d0 d4 07 0b bd ad b7 3a 3d 97 3b b4 3c 8a ef 4b bd
       -0.033943012 0.045585323 0.02200107 -0.04978899
0003e0 d1 4f 54 3c b1 1f 1a 3d cc 67 13 3d b6 c9 58 3d
       0.012958483 0.03762788 0.03598766 0.05292674
0003f0 6b 75 3e 3d 19 23 45 bd dc 5c be 3c b0 81 c9 bc
       0.046498697 -0.048129175 0.023237638 -0.024597973

network_body.linear_encoder.seq_layers.2.weight f4 [256, 256]
000000 0e 99 80 bd 64 47 66 3d 88 6d 42 3d e6 f6 95 bd
       -0.06279193 0.056220427 0.04746774 -0.07322483
000010 3e 85 c2 3b 12 a4 42 bc db 6b 0c bd 47 f4 5e 3b
       0.005936294 -0.011879938 -0.034282546 0.0034020112
000020 59 e0 ae bc 7d 3d 97 3d 8d 78 f6 3d b0 63 74 3c
       -0.021347212 0.07384775 0.12034712 0.0149163455
000030 2b 8d 0a bd 31 7b 64 3c ad f7 90 3d eb e3 3b 3c
       -0.033826035 0.013945387 0.070784904 0.011467914
000040 9e 4b e6 bc bc dc c2 bc 13 b6 a1 3d 7c c7 66 bd
       -0.028112229 -0.023786895 0.07896056 -0.056342587
000050 fb 36 9b bc b5 fa be 3d e2 24 35 3c f5 46 bc bc
       -0.018947115 0.09325162 0.011056157 -0.022983054
000060 3a 1d 77 bd 38 0a 6c bd 04 cb 4c 3d ac 4f 35 bc
       -0.060330607 -0.057626933 0.0499983 -0.011066359
000070 71 a9 25 bd 7b 1e 41 3d 26 df c4 3c 65 b2 c1 3c
       -0.040444795 0.04714821 0.024032187 0.023644635
000080 bc a0 27 bd 3f 4d 1d be a2 20 a8 bb bd a9 11 bd
       -0.040924773 -0.15361498 -0.0051308433 -0.035562266
000090 be 5d 41 3d 04 04 b9 bd be e4 0d bd 6c 2a 1d bd
       0.04720854 -0.09033969 -0.034641974 -0.038370535
0000a0 6d dd 91 3d b2 20 d4 bd 52 5d 68 bd 1b 74 da bc
       0.07122312 -0.10357799 -0.056729622 -0.026666692
0000b0 f8 7c 2c 3d d1 13 17 3d 15 dc 8b bd f2 a6 da 3d
       0.042111367 0.036884133 -0.06829087 0.106763735
0000c0 af d3 2a bd ee f4 ba 3c f8 9d 36 bd 94 5c 80 3b
       -0.041705783 0.02282187 -0.044584244 0.003917286
0000d0 08 5b 0b bd 39 52 92 3c 58 d5 8f bc 48 37 d8 3b
       -0.03402236 0.017861472 -0.017557785 0.006598387
0000e0 c1 51 30 bd 21 61 3f bc 21 b3 a5 3c 1d 35 18 bd
       -0.043046717 -0.011680872 0.020227017 -0.037160028
0000f0 fc ea a7 bc 1e b4 e8 3c e0 ec 95 3d 8c 77 69 3d
       -0.020497791 0.028406199 0.07320571 0.056998774
000100 ec 36 51 3d 25 a6 76 bd ae 04 ac bd 8a 22 fb 3c
       0.05107777 -0.06021704 -0.0839933 0.030656118
000110 15 a3 a1 3d d7 75 11 bd 2c 80 0f be db da 1c 3d
       0.078924336 -0.03551277 -0.14013737 0.038294654
000120 ce 56 8d 3c 50 c4 c8 bc 48 cc 58 bd c0 cc ee bd
       0.017253306 -0.024507672 -0.052929193 -0.11660147
000130 8c e0 94 bd 41 85 99 bd 2f d7 62 bd e9 31 10 3d
       -0.072693914 -0.07496119 -0.055380996 0.035203848
000140 fd 35 bd 3d d0 1b bf bb a8 36 ef bc 7d 60 9c bd
       0.09238813 -0.005832173 -0.029200867 -0.07635591
000150 ca 5d 26 bd fb 1e 01 3c fd ba 7b 3c 71 1e 0a 3d
       -0.040616788 0.0078809215 0.015364406 0.033720437
000160 3e ee 63 3c 03 87 15 3d 65 39 65 3c b5 c6 f3 3d
       0.013911782 0.03650571 0.013990735 0.11903135
000170 59 a8 88 3d 2e 20 99 3b 0c af a4 bd 9e 5a 13 bd
       0.06672735 0.0046730256 -0.080412 -0.03597509
000180 df 20 bc bd 29 7d 1d 3d 25 4e 0f bd 83 69 68 3a
       -0.09185957 0.03844944 -0.034986634 0.000886582
000190 ba 53 99 3d 69 3e 43 3d b8 6e b3 bb 5d a8 18 3d
       0.07486673 0.04766694 -0.005475845 0.03726994
0001a0 98 d3 03 be bf 21 3a 3d 8f 7a 81 3c dc 04 b3 3d
       -0.12873685 0.04544234 0.01580551 0.08741161
0001b0 a2 dc 8a bc 00 eb 4f 3d 66 b9 99 bd a3 71 2b be
       -0.016950909 0.050761223 -0.07506065 -0.16742568
0001c0 00 5b 8f 3d 61 fe e3 3d 44 4d 58 bd 16 12 f6 3c
       0.06999779 0.11132503 -0.05280806 0.03003792
0001d0 05 67 8a bd dc 07 71 bd 91 21 e2 3d 89 f1 0b bd
       -0.06757931 -0.058845386 0.110415585 -0.034165893
0001e0 49 b9 fb 3b 0c 4f b4 bd 11 e8 d1 3d 81 aa 83 bc
       0.007682 -0.088041395 0.10249341 -0.016072514
0001f0 9d c6 aa 3c 3c 95 50 bd 20 e0 11 bd 9c 8a 2b bd
       0.02084666 -0.05092357 -0.035614133 -0.041880235
000200 79 fe 96 bc 80 b5 37 3d ef d3 e8 3b a4 30 ca bc
       -0.018431889 0.044850826 0.0071053426 -0.024681397
000210 66 6c b1 bc 5a 4b 87 bd 33 d0 14 3d d8 a6 b1 bd
       -0.021658134 -0.06606169 0.036331367 -0.08674401
000220 c9 cb 35 3d 13 ce 58 bc 88 20 c6 3c 86 d2 08 3d
       0.044383798 -0.013232726 0.024185434 0.033403896
000230 fc 3c 8c 3d 5b 2f 14 bc d7 00 9c bd 4e 8d 6b bd
       0.06847569 -0.009044494 -0.07617348 -0.057507806
000240 33 5c ec 3c 74 66 9a 38 fe c5 b7 3b 6e c2 09 3d
       0.028852558 7.3623756e-05 0.0056083193 0.03363269
000250 af 46 bd 3c f2 7a 8b 3c 71 40 b8 bd 43 ed 0f be
       0.023104994 0.017026398 -0.08996666 -0.14055352
000260 3f 42 86 bd de 23 22 3d 2b 1a d2 3d 08 06 a4 bd
       -0.06555604 0.039584987 0.102588974 -0.08008963
000270 d0 5b 1d bd 4c 8e 50 bc 6f 63 36 3d e0 83 a1 bd
       -0.038417637 -0.012729239 0.04452842 -0.07886481
000280 26 29 1d be 0d ae 55 3d 26 60 6b 3d 51 3e f5 bc
       -0.15347728 0.05216794 0.05746474 -0.029936941
000290 67 6f b3 bd 29 fd 5b bc 85 5d eb 3c 11 61 36 3c
       -0.08761483 -0.013427057 0.028731117 0.011131541
0002a0 16 6c 70 3d a5 99 50 3e af f0 fd 3c 12 3d 45 bd
       0.05869683 0.2037111 0.030998556 -0.048153944
0002b0 bc 6e a0 bc 1b b1 fe bc bf 7f 6b bd 78 8a c4 bc
       -0.019584052 -0.03109031 -0.057494875 -0.023991808
0002c0 dc dd d6 bc 58 97 a6 3d fe da 3b 3d 0d cd aa 3d
       -0.026228838 0.08134335 0.045863144 0.083398916
0002d0 1c 67 12 bc d3 ea 56 bd 27 96 df 3c 4b 1f 90 3c
       -0.008935716 -0.05247004 0.027293278 0.017593047
0002e0 72 77 89 bd 89 86 94 3c 3a f5 cd bd 0a 3a b9 3c
       -0.067122355 0.018130558 -0.10056539 0.022610683
0002f0 47 5e ab 3d a5 01 85 3c 86 04 8e 3d 2a 06 4d 3b
       0.08367591 0.016236136 0.069344565 0.0031284192
000300 38 1c 8b bd f6 bf 0f bd 9e 26 96 bd 34 3f 4a bd
       -0.06792492 -0.035095178 -0.073315844 -0.04937668
000310 c7 d2 dc bd 4b ff bb 3b 6f 68 36 be d2 85 ac bd
       -0.1078239 0.0057372204 -0.17813276 -0.08423962
000320 6d 2e 4f bd 3c c3 85 3d e0 0a ff bc 70 43 6c 3c
       -0.050581384 0.065313786 -0.031133115 0.014420375
000330 50 9e 25 bd 31 a1 b9 bd 09 27 a0 3c db d9 90 3d
       -0.04043418 -0.09063948 0.019549863 0.07072803
000340 d9 66 ac 3d 93 30 d2 bd 0a 11 0f 3d f9 97 b6 3b
       0.08418054 -0.10263171 0.03492836 0.005572316
000350 4a 74 ef 3c d0 39 90 3d 83 f7 aa 3b 60 8a 0b bc
       0.029230256 0.07042277 0.005217494 -0.008516878
000360 5e 57 3a bd f7 9f c8 bd 29 5f df bd 6a 32 d3 bb
       -0.045493476 -0.09796136 -0.10906822 -0.006445219
000370 1d 5b d2 3c 96 cf f8 3c 2a 87 d4 3b 4a 13 ff bc
       0.025678212 0.030372422 0.0064858394 -0.031137127
000380 19 d5 fe 3c db 26 86 bd 7e ee cd bb e3 30 0a bd
       0.031107472 -0.0655038 -0.006284534 -0.03373803
000390 5b 42 2d bc ec eb 20 be 88 c2 9f bc 4a 5c c9 bd
       -0.010574902 -0.15714997 -0.01950194 -0.09832056
0003a0 dd 1c e3 3b 59 4c bf 3d 96 cd ee 3d de c6 08 3e
       0.006930931 0.09340734 0.11660306 0.13357112
0003b0 ef b9 c2 b9 c1 04 f2 bc 36 d0 b3 bd b4 4e d1 3c
       -0.00037141095 -0.029543282 -0.087799475 0.025550224
0003c0 ac cc 6a 3c 5d 2c 97 3c 91 64 4c 3d 8b 5a e6 bc
       0.014331024 0.018453771 0.049900595 -0.028119346
0003d0 67 16 9a 3d 10 bb 5f bd 61 cf c6 bd 28 e8 4f 39
       0.07523804 -0.054621756 -0.09707523 0.00019827543
0003e0 f0 8c 84 3d ca 9c ab bc 92 af db 3a f3 3b a9 3b
       0.06472194 -0.020948786 0.0016760698 0.005164617
0003f0 15 81 46 3b eb a4 cc bc b7 55 9a bd 06 bc 04 3d
       0.0030289341 -0.024980983 -0.0753588 0.032405876

network_body.linear_encoder.seq_layers.2.bias f4 [256]
000000 02 8d e8 bb 2c 18 1d bd e8 8a 1b 3c fa 2b 32 bd
       -0.0070968876 -0.03835313 0.009493567 -0.04349897
000010 40 de 22 bd ec 0a 21 bd 1e f3 03 3c 2c dc b5 bb
       -0.039762735 -0.039317057 0.008053569 -0.005549928
000020 d3 ef 22 bd 23 81 68 3d d4 95 4d b9 59 a8 03 bd
       -0.039779495 0.05676378 -0.00019606139 -0.03214297
000030 35 55 25 3d 99 85 bb 3c 86 28 42 bc 07 9d 39 3d
       0.040364463 0.022890853 -0.011850482 0.04531577
000040 3a 76 04 3d c8 05 86 bc e9 8f 2e 3d 5d 5e 3b 3d
       0.032339312 -0.016360179 0.042617712 0.04574429
000050 c6 1c 00 bd c7 8e 80 bb 8f ab 26 3d 5e fb 4d 3d
       -0.03127744 -0.0039232704 0.040690955 0.05028855
000060 21 35 29 bd a7 71 e3 3c f6 7c 7f bc 2d 6c 16 bd
       -0.041310433 0.027764155 -0.015593758 -0.03672426
000070 84 45 9a 3c 5e dc a5 bc e6 f0 26 3d 72 73 09 3d
       0.018831976 -0.02024668 0.040757082 0.033557363
000080 ca e6 54 3d 62 ac 05 3d 14 a5 73 3c da 86 10 bd
       0.05197791 0.0326351 0.014870901 -0.035284854
000090 16 e4 03 bd d2 c5 cf bc a8 28 ef 3c 6a 02 18 bd
       -0.03219994 -0.025362883 0.029194191 -0.037111677
0000a0 4f b4 06 3d ac a0 5c 3c 71 88 41 3d c6 ff 31 bc
       0.0328868 0.013466042 0.04724926 -0.010864204
0000b0 59 8c e2 3c 79 9f 07 bd 0e d9 1a 3d 5d c7 3e 3d
       0.027654814 -0.03311107 0.037804656 0.046576846
0000c0 ec 88 30 bd ef f7 12 3d 2f 48 ff 3c 12 1a 2b 3d
       -0.04309933 0.03588098 0.03116235 0.04177291
0000d0 5e b3 1e bd 42 a4 0a bd eb 70 0d bd 04 a4 06 3d
       -0.038745277 -0.033848055 -0.034531515 0.03287126
0000e0 66 6c 23 3d 1e ee 50 3d 22 21 fd bb bb 04 07 bd
       0.0398983 0.051008336 -0.007724897 -0.032963496
0000f0 82 02 06 3d 6d 6c 23 bd c7 ed c0 bc 61 b4 fb bc
       0.032717235 -0.039898325 -0.023550881 -0.03072566
000100 d6 e1 19 bd 44 51 34 3d 4d 92 3a bd b2 3a f8 bc
       -0.03756889 0.044022813 -0.04554968 -0.030301426
000110 ce fe 0e bd f0 8a 20 3d bf 26 82 3c e3 a0 4e 39
       -0.03491097 0.039195 0.015887616 0.00019705626
000120 2e f7 ab bc d4 a8 19 bd 41 68 e3 3c b9 f6 4e 3d
       -0.020991888 -0.037514523 0.027759673 0.05052826
000130 a9 62 d8 bc e4 58 8f 3c e1 b1 d5 bc 3b 52 3e 3d
       -0.026414232 0.017498441 -0.026085796 0.04646514
000140 79 d9 24 3d fe aa 3a 3d 7e 6f b4 bc 5c 6f 1b 3d
       0.04024646 0.045573227 -0.02202582 0.037947997
000150 c2 d7 b6 bc 11 78 4c bd 63 40 39 bd 3c 84 c5 bb
       -0.022319678 -0.04991919 -0.04522742 -0.0060277265
000160 79 c5 29 3d c1 da 1d bd c6 fc 15 3d a5 a6 30 3d
       0.04144809 -0.038538698 0.036618017 0.043127675
000170 54 27 e6 bc e0 19 3e 3d 52 b9 f3 bc ac 45 b5 bb
       -0.028094925 0.046411395 -0.029751454 -0.005531987
000180 9c 33 38 3c d0 73 2c 3d d3 cd 1f 3d d9 ef 08 3d
       0.011242773 0.042102635 0.03901465 0.03343186
000190 50 a6 23 3d 1c 18 15 bd 3c 90 ab bc b2 f8 54 bd
       0.03995353 -0.036399946 -0.0209428 -0.051994987
0001a0 95 ba e9 bc 90 94 3c 3d 84 e0 3b 3c f4 ba 1e 3c
       -0.028531352 0.046040118 0.011467103 0.009688128
0001b0 bf 5d 12 bd 65 b2 3e 3d 12 ca 2a bc 93 c5 4a bb
       -0.035733934 0.04655685 -0.010424154 -0.0030940517
0001c0 9c 4a df bc bf f5 22 3d 92 35 f1 3c 1a 01 0c bd
       -0.027257256 0.039785143 0.02944449 -0.034180738
0001d0 8f db 0b bd 18 0b a9 3c d6 f2 b3 bc 2d 26 87 bc
       -0.034144934 0.020635173 -0.02196638 -0.016497696
0001e0 b8 36 32 bd d5 67 28 3d 88 e7 26 39 f3 77 06 3c
       -0.043509215 0.041114647 0.00015917246 0.008207309
0001f0 61 87 0f bd 21 06 28 3d 4f 8d 39 bd f7 c7 34 3d
       -0.035041217 0.04102147 -0.045300778 0.044136014
000200 fd ab 31 3d cf c3 30 3c 28 41 03 3d c2 94 15 3d
       0.04337691 0.010788872 0.03204456 0.03651882
000210 4f 61 2d bd 4a 46 ca bc fb 41 06 3d 96 02 6d 3c
       -0.04232913 -0.02469172 0.032777768 0.014465949
000220 d1 6b 30 bd 05 4e 22 bc 5e 16 19 3d fe 73 3a 3d
       -0.04307157 -0.009906297 0.037374847 0.045520775
000230 e9 23 23 bd 94 72 24 3d 43 47 20 3d 53 66 32 3d
       -0.03982917 0.040148333 0.03913046 0.043554615
000240 ad 6d 27 3d 7c c6 22 bc e5 c2 89 bc 25 8d 2c 3d
       0.04087608 -0.009935018 -0.016816566 0.042126793
000250 1a c2 28 3d 75 24 25 3d 5b 67 20 3d 5e d7 2c 3d
       0.041200735 0.04031797 0.039161067 0.042197578
000260 bc e7 07 3d 69 92 4f bd 34 1b 24 3d 31 8f 49 3d
       0.033179983 -0.050676737 0.040065005 0.049208824
000270 aa d8 56 3d 3f 3b 45 bd 13 69 0b 3d e0 f9 09 ba
       0.05245272 -0.048152205 0.034035753 -0.00052633695
000280 15 ef fb 3c 15 f9 9c bc de db 19 3d 8a 71 2d 3d
       0.030753652 -0.01916174 0.037563197 0.042344607
000290 87 43 27 bd f1 27 13 3d 6e ca 02 3d 91 90 15 39
       -0.040835883 0.035926763 0.031931333 0.00014263602
0002a0 c6 ec 1e bd b7 03 1a bd 60 f8 2c 3d ae b5 03 bd
       -0.038800023 -0.0376012 0.042229056 -0.032155685
0002b0 21 8b 0b bd f9 ec 27 3d 72 28 f8 bc 58 69 f1 ba
       -0.03406823 0.04099748 -0.030292723 -0.0018418236
0002c0 65 ce 19 3d ae f7 57 3c b3 68 9e 3c 10 a6 e7 3c
       0.03755035 0.01318161 0.019337034 0.028277427
0002d0 bb ce 23 3d 98 c0 0c bd a0 a5 33 3d 48 c2 29 3d
       0.039992075 -0.03436336 0.043859124 0.041445047
0002e0 05 b3 0e bd 70 83 4b bc b7 bb 9d bc ad f2 91 3c
       -0.034838695 -0.012421474 -0.019254548 0.017815912
0002f0 b6 df 06 bc fc d4 07 3d 00 3b 2b 3d 03 93 ee bc
       -0.008232048 0.033162102 0.041804314 -0.029122835
000300 bd 33 12 bd fc 28 2a bd 30 61 f5 39 3d 9d 14 bd
       -0.035693873 -0.041542992 0.00046802452 -0.036282767
000310 f3 97 35 bd eb d7 50 3d 85 c5 f9 bc 84 9a 48 3d
       -0.044334363 0.050987165 -0.030489692 0.048975483
000320 d2 fc 21 3c 13 c3 39 3d 09 81 ed bc 9d ea 1b bd
       0.009886937 0.045352053 -0.028992193 -0.03806554
000330 48 12 2f 3d 63 c5 cd bc a6 23 33 3d 56 e8 0f 3c
       0.042742044 -0.025118535 0.04373517 0.008783421
000340 c9 73 3d bd 22 a4 0e 3d 65 75 25 3d 38 41 fe bc
       -0.046253 0.034824498 0.04039516 -0.031036958
000350 c5 dd 18 3d fa f1 01 3d 89 58 4e 3d 62 48 3d 3d
       0.03732087 0.031724907 0.050377402 0.046211608
000360 6e 2b ae bc bc dc e6 3c 0f 24 4d 3d 3f 2c 2f 3d
       -0.021260943 0.028181426 0.050083216 0.042766806
000370 8c b3 f5 bb 20 1f 19 3d 04 42 02 bd 3b cc 21 3d
       -0.0074982103 0.0373832 -0.03180124 0.03950141
000380 f6 3f 3f 3d 32 75 02 bd f4 ce 14 3d 74 86 19 bd
       0.046691857 -0.031850047 0.03633018 -0.03748174
000390 a1 51 9a 3c 9c 14 bf 3c 2e 1c 5f 3c e2 ed cc 3c
       0.018837752 0.023325257 0.013617558 0.025015775
0003a0 80 bf 31 3d 5a 87 10 bd 0f 2a 27 3d 25 49 06 3d
       0.04339552 -0.03528533 0.040811595 0.0327846
0003b0 6d 58 36 3d fa f4 e8 bc 43 b2 a5 3c 06 88 a3 3c
       0.044517923 -0.028437126 0.020226603 0.019962322
0003c0 70 a2 0d bd 64 cf db bc b8 f9 9e bc f4 33 5b 3d
       -0.03457874 -0.02683229 -0.019406185 0.053516343
0003d0 01 43 8f 3c be 6e 9a 3c e8 2b 08 3d d9 8e ef 3c
       0.017488005 0.018851634 0.033244997 0.02924292
0003e0 dd 76 f6 3c 1d 0c 4b 3d 74 19 dd bb 4e fa 0b bd
       0.030085975 0.0495721 -0.006747419 -0.034174256
0003f0 8f b8 17 3c 5c c5 05 3d c6 6d 4c 3d 86 88 0f 3d
       0.009260311 0.03265892 0.049909376 0.03504231

action_model._continuous_distribution.log_sigma f4 [1, 3]
000000 8f fe c3 bd 0a 38 3a be 03 c6 4e 3b
       -0.095700376 -0.1818544 0.003155113

action_model._continuous_distribution.mu.weight f4 [3, 256]
000000 e6 05 49 bb a6 64 06 bd f5 5d d7 b8 1e 70 7f bd
       -0.0030673682 -0.03281083 -0.000102695 -0.062362783
000010 a9 0b 84 bc 7e 17 c6 bc 20 ad 03 3c 28 07 f7 bc
       -0.016118841 -0.024181124 0.008036882 -0.03015478
000020 ba 66 5b bc 71 c9 34 3d 3b 64 bf 3b cd e4 1b bd
       -0.013391191 0.044137422 0.005840806 -0.03806
000030 a4 a1 e4 3c 64 a1 f7 3b ce 4a 3a bb a7 f6 c8 3c
       0.027909108 0.007557081 -0.0028425935 0.024531676
000040 ce 45 8b 3b 4a 3f c1 3b cc 16 de 3c fc c2 0c 3d
       0.0042502647 0.005897437 0.02711048 0.03436564
000050 d6 3d 24 bd d3 dc 22 ba ee 70 33 3d 34 f2 d8 3c
       -0.040098034 -0.0006212715 0.04380887 0.026482679
000060 32 91 4d bd f9 8e 95 3c 65 ef 14 bb a3 cc 05 bd
       -0.050187297 0.018256651 -0.0022725698 -0.03266586
000070 ae 13 81 3b 74 0e 11 bc a0 a3 f4 3c 68 32 8f 3c
       0.0039391136 -0.008853544 0.029863179 0.01748009
000080 d4 94 ea 3c de 29 21 3c 1f c0 e7 3b 78 d3 23 bd
       0.02863542 0.009836642 0.007072463 -0.039996594
000090 f9 b1 1f bb c0 32 47 bc 3f 34 dd 3c 29 bf c6 bc
       -0.0024367555 -0.012158096 0.027002452 -0.024261074
0000a0 2b a8 89 3c 81 76 8a 3b db c5 41 3d 8d 1f df bc
       0.016803822 0.0042255525 0.04730783 -0.027236724
0000b0 fc ea 4e 3b ef ea 3c bd e0 9e ad 3c 1b 93 3e 3d
       0.0031573167 -0.046122488 0.021193922 0.04652701
0000c0 d5 5f 1b bd 99 17 e1 3c 77 3d d7 3c c6 76 9b 3c
       -0.03793319 0.027477073 0.026274426 0.018977534
0000d0 f8 dd 6c bd 92 2d a9 bc 00 84 10 bd 24 f4 37 3d
       -0.057828873 -0.020651612 -0.035282135 0.044910565
0000e0 0b 9e de 3c 44 49 22 3d 98 3a 23 bc 1d a6 1a bd
       0.02717497 0.039620653 -0.0099627 -0.037756074
0000f0 09 97 a6 3c 87 2e 2c bd 80 2c 65 bd 6c ee 5c bc
       0.020335691 -0.04203656 -0.05595064 -0.013484579
000100 fb fe cc bc cd 74 23 3d 02 70 46 bd 83 6b c8 bc
       -0.025023928 0.03990631 -0.048446663 -0.024465328
000110 c6 b1 2b bd c2 a5 8a 3c f4 56 9f 3b fc a0 30 3c
       -0.041917585 0.016924743 0.0048626605 0.010780569
000120 6c b8 cd bc 50 9f bc bc 43 d3 9d 3c dc da 1f 3d
       -0.025112353 -0.023025185 0.019265777 0.03902708
000130 62 03 b7 bc d6 ff 94 3c 6c 52 18 bc 2b 5c f3 3c
       -0.02234048 0.018188398 -0.009296995 0.029707035
000140 34 aa 9a 3c 3e 4e ce 3c fd 8d 34 bc 2f f6 ff 3c
       0.018879987 0.025183793 -0.011020181 0.03124532
000150 3e c0 17 bd 7e 41 35 bd c7 e5 ee bc 11 e4 38 3c
       -0.03704857 -0.04425191 -0.0291623 0.011284844
000160 d5 8f f7 3c cb e9 c2 bc ce 7f 60 3c 10 68 dd 3c
       0.030219952 -0.023793122 0.013702346 0.02702716
000170 a6 0f 81 bc e9 c8 f0 3c 20 ea 2b bc 0d 4f 97 ba
       -0.015754532 0.029392676 -0.0104928315 -0.0011543945
000180 a6 13 86 3b 7d a5 c1 3c 5a 3b d8 3c 0d ca c0 3c
       0.0040916977 0.023638481 0.026395489 0.023533845
000190 dd c5 18 3d 89 9c 9d bc 66 f5 a8 bc e1 94 3d bd
       0.037298072 -0.01923968 -0.020624828 -0.04628456
0001a0 bb a1 03 bd f5 07 3d 3d cf 97 8c 3b 52 0f a6 3b
       -0.03213666 0.046150167 0.004290558 0.0050677443
0001b0 2b 1f c4 bc 3e 23 56 3d cb 3a cf bb 34 fa 70 bb
       -0.023940643 0.052279703 -0.0063241473 -0.0036770226
0001c0 a5 f3 1f bd 4b d8 d0 3c a4 22 e7 3c 54 90 02 bd
       -0.039050717 0.025493762 0.02821476 -0.031875923
0001d0 80 80 6d bd be 4e 2f 3c db b6 e4 bc bb ca ba bc
       -0.057983875 0.010699926 -0.027919224 -0.022801748
0001e0 fe 62 6a bd 4c b1 38 3d 1e 72 c3 3b 19 fb 1a 3a
       -0.057223313 0.04509096 0.0059645316 0.000591205
0001f0 b1 ae a4 bd 83 78 13 3c 54 f9 00 bd e8 c1 03 3d
       -0.08041132 0.0090009 -0.031487778 0.032167345
000200 e8 5a 36 3d 00 45 22 3c 58 f7 88 3c f1 e8 cb 3c
       0.04452029 0.009904146 0.016719505 0.024891349
000210 b8 91 25 bd 22 78 83 bc ea 51 c8 3c aa a3 56 3b
       -0.04042217 -0.016048495 0.024453122 0.003275136
000220 16 31 22 bd 93 54 38 bb b9 46 ce 3c ba 90 13 3d
       -0.039597593 -0.0028126582 0.025180208 0.036026694
000230 e6 cc ef bc 3f f6 02 3d 76 ea ff 3c 52 d7 03 3d
       -0.029272508 0.03197312 0.03123973 0.032187767
000240 12 6a a7 3c 31 ce 6a 3a 4c cb 71 bc ff 41 40 3d
       0.02043632 0.00089571165 -0.014757942 0.04693794
000250 91 1d c3 3c 03 e0 ca 3c b3 72 ab 3c 59 1c de 3c
       0.02381781 0.02476502 0.020928716 0.027113127
000260 ef db 9f 3c ba b1 26 bd e7 a6 34 3d 59 da 0d 3d
       0.019514052 -0.040696837 0.044104483 0.03463206
000270 d1 be 36 3d fe 0f 1b bd 50 b2 f8 3b 55 1b 5a bc
       0.04461557 -0.03785705 0.007589616 -0.0133121805
000280 24 0e d7 3c 17 19 d3 bb 60 e9 cd 3c 85 0c ce 3c
       0.02625186 -0.0064422 0.025135696 0.025152454
000290 46 df 44 bd 65 e1 15 3d 94 ac 6c 3c af b2 1a 3b
       -0.048064493 0.036591906 0.014445443 0.002360504
0002a0 a4 8b 46 bd 61 03 e2 bc 04 b2 ff 3c 20 55 0d bd
       -0.048473015 -0.027589502 0.031212814 -0.03450501
0002b0 92 8b f2 bc c2 28 d5 3c 79 31 86 bc 1e ee 37 3c
       -0.029607568 0.026020411 -0.016381012 0.011226205
0002c0 93 e5 95 3c 8b 25 07 3a e2 ef 8b 3b 2f df 9a 3c
       0.018297946 0.00051554356 0.0042705396 0.01890525
0002d0 e0 c1 d6 3c dc 47 5e bd ef 61 04 3d 6c 1d fa 3c
       0.026215494 -0.05426775 0.03231996 0.030531608
0002e0 df ea 51 bd 3e bc cb bc 3e c2 9f bb 26 a8 2d 3b
       -0.05124938 -0.024870034 -0.0048754504 0.002649793
0002f0 7f 7b 49 bc 90 a7 95 3c 9f fe 0e 3d f3 30 0a bd
       -0.01229751 0.018268377 0.034910794 -0.033738088
000300 85 0c a2 bc 4d 37 0c bd 54 03 cb bb b1 3d ea bc
       -0.01978136 -0.034232426 -0.006195465 -0.02859387
000310 b0 b1 8c bc da 88 24 3d 1a 64 95 bc d5 0e 08 3d
       -0.017174572 0.040169574 -0.018236209 0.03321727
000320 d2 30 47 3b 5b 9c 09 3d 8d 76 16 bb 5a 64 16 bd
       0.003039409 0.033596378 -0.0022958845 -0.036716796
000330 5a 18 a3 3c dc 5e 91 bc 1c ec 11 3d da 9b 5d 3c
       0.019909073 -0.017745428 0.035625562 0.013525927
000340 0c e3 62 bd 09 7f ab 3c 9f cc 38 3d 17 a4 50 bd
       -0.05539231 0.020934599 0.045117017 -0.05093774
000350 73 4e a2 3c 73 ac 0f 3c 53 0a 0a 3d 8a ac 27 3d
       0.019812798 0.008769142 0.033701252 0.04093603
000360 ec 93 a8 bc f9 8a 05 3b 28 ad 40 3d 31 a3 dd 3c
       -0.020578347 0.0020377024 0.047040135 0.027055355
000370 94 c5 0b 3c 24 cf fd 3c 65 a2 26 bb dd a2 f5 3c
       0.008530993 0.030982561 -0.0025426385 0.029984886
000380 d1 7a c4 3c 9e 67 ea bc 38 0e dd 3c ee 12 36 bd
       0.023984345 -0.028613862 0.02698432 -0.044451647
000390 1a 14 08 3d 26 39 42 3c ef 44 10 bb 2e c5 3f 3c
       0.033222295 0.011854446 -0.0022013744 0.011704726
0003a0 98 01 a5 3c 15 62 d8 bc 0d 50 8a 3c a0 dd 88 3c
       0.020142362 -0.026413957 0.016883874 0.016707242
0003b0 55 31 bd 3c c2 ca d4 ba 79 7a 49 3c 44 5a 94 3b
       0.023094812 -0.0016234743 0.012297266 0.004527362
0003c0 4c c6 61 bd 29 7b 05 bd 0f 6b 24 3a 08 f3 41 3d
       -0.05512075 -0.032588158 0.00062720565 0.047350913
0003d0 7c d6 f7 3b 9b 74 42 3c b1 4b 6e 3c be 24 47 3c
       0.0075634103 0.011868621 0.014544413 0.012154756
0003e0 d8 e1 d5 3c 73 b4 15 3d 23 b1 8a bb fb 25 dc bc
       0.026108667 0.036549043 -0.004232542 -0.02687358
0003f0 f5 d0 65 3b ac 42 97 3c 6a e1 1c 3d 32 ef 9d 3c
       0.0035067175 0.018464409 0.03830091 0.019279096

action_model._continuous_distribution.mu.bias f4 [3]
000000 f6 bc 25 3d 21 fc 5b 3b 86 f6 18 ba
       0.04046341 0.0033567029 -0.00058350747

64 f4 [28]
000000 eb 0b fe 3e 4e 78 8c 3a bf 0c fe 3e 2a 5c dd 3e
       0.49618468 0.0010717006 0.496191 0.43234378
000010 ab cc d8 3e 4e 78 8c 3a a5 af d8 3e e4 f6 c8 3e
       0.4234365 0.0010717006 0.42321506 0.39250863
000020 e6 1c cb 3e 4e 78 8c 3a 2e 16 cb 3e 80 e5 be 3e
       0.39670485 0.0010717006 0.3966536 0.3728447
000030 65 47 1c 3e 4e 78 8c 3a 8f 70 1a 3e c3 86 81 3e
       0.1526161 0.0010717006 0.15082 0.25298128
000040 82 70 a3 3e 4e 78 8c 3a 59 60 a3 3e fb e6 91 3e
       0.31921774 0.0010717006 0.31909445 0.28496537
000050 a6 ee 22 3e 4e 78 8c 3a 4d 6c 20 3e a7 c1 45 3e
       0.1591135 0.0010717006 0.15666313 0.19312154
000060 28 00 b2 3e 4e 78 8c 3a c7 eb b1 3e 0b ce 87 3e
       0.34765744 0.0010717006 0.34750196 0.26524386

67 f4 [10]
000000 f6 ab 81 3b 7b a6 0b 3f 6e fd 7f 3b 87 87 05 3f
       0.003957267 0.54550904 0.0039060968 0.52159923
000010 ff 19 29 40 65 12 03 41 24 27 34 3f ba ca 16 3b
       2.6422117 8.191991 0.70372224 0.0023009018
000020 41 d3 17 3f 8a b4 f1 3e
       0.5930672 0.47208053
