Assets/NeuralNetworks/NN/ReinforcementLearning/KartBehavior.onnx (onnx, 306312 bytes, 11 tensors)

network_body.observation_encoder.processors.0.normalizer.running_mean f4 [28]
000000 5b 49 54 3f fc 34 86 35 0a da 2e 3e ec b0 1e 3f
       0.8292443 9.999198e-07 0.17075363 0.6198871
000010 0d 10 79 3f 5d f1 32 34 fd fc dd 3c 25 cc ab 3e
       0.97290117 1.6665349e-07 0.027098173 0.33554187
000020 0c 5e 77 3f 55 f1 32 35 e7 1d 0a 3d 4b 2e c4 3e
       0.9662788 6.666135e-07 0.033719923 0.3831657
000030 2b 91 7e 3f 64 f1 b2 34 8c 60 b7 3b 24 44 26 3e
       0.9944026 3.3330718e-07 0.005596226 0.16236931
000040 7d 74 7e 3f f3 34 06 35 5a c4 c5 3b b6 72 3c 3e
       0.99396497 4.999594e-07 0.00603537 0.18403134
000050 a7 f4 7f 3f 00 00 00 00 90 7c 37 39 fa 1c 09 3e
       0.99982685 0.0 0.00017498643 0.1338996
000060 9d e0 7f 3f f4 34 06 35 dc 49 fb 39 ac a4 13 3e
       0.9995211 4.9995947e-07 0.0004792948 0.14418286

network_body.observation_encoder.processors.1.normalizer.running_mean f4 [8]
000000 03 20 7b bc 53 83 74 35 31 38 46 bb 12 9e 62 41
       -0.015327456 9.1088185e-07 -0.0030245895 14.163591
000010 65 0a e9 bc df 02 61 bd 38 69 e3 3b 01 2b 64 3f
       -0.02844734 -0.05493438 0.0069400333 0.8912812

network_body.linear_encoder.seq_layers.0.weight f4 [256, 36]
000000 32 14 bd bc 26 53 a9 3d 77 3d ca bd 5c c6 48 3d
       -0.023080919 0.082678124 -0.09875005 0.049017295
000010 26 5a 52 3d f5 c1 f6 3c 98 86 b8 3e 56 76 82 3e
       0.051355503 0.030121783 0.36040187 0.25480908
000020 c7 33 00 be 6d 71 a9 bd a5 fd 4a 3d 8f 43 d2 be
       -0.12519751 -0.082735874 0.0495583 -0.41067168
000030 8a 6d b6 be bc 2c 95 bc 0f 7d 58 be b6 9d f4 bd
       -0.35630447 -0.018209808 -0.21141456 -0.119441435
000040 a6 2c 6e be 5d b8 c0 bc 24 cf 9f bc 89 bd 81 3e
       -0.2325922 -0.023525411 -0.019507952 0.25339916
000050 f0 57 01 be 66 92 ff 3b 40 d2 ec 3c cb 19 5b 3e
       -0.12631202 0.0077994345 0.028908849 0.21396558
000060 87 dd 77 be 08 48 60 be f8 f6 c0 be 67 c2 56 3e
       -0.242056 -0.21902478 -0.37688422 0.20972596
000070 ad c3 1c be a5 c8 a3 be ec 15 ba 3c 43 61 0a be
       -0.1530902 -0.31989017 0.022715531 -0.13513665
000080 47 13 1d 3e f7 9e 73 bd ae 96 20 3e 9c ed 99 3d
       0.15339385 -0.059477773 0.1568248 0.075160235
000090 6f 98 08 3e af a3 8f bc ef 73 98 bd 6c ac 72 3d
       0.13339399 -0.017534105 -0.074439876 0.059246466
0000a0 a3 79 f8 bd af 7a de bd 82 0d 07 be 78 f5 04 be
       -0.12132575 -0.10863244 -0.13188747 -0.12984264
0000b0 f3 36 7c be 13 cc 8a 3e 87 33 98 3e 56 00 c5 3d
       -0.24630336 0.2710882 0.29726812 0.09619205
0000c0 6e 6f 3d 3c f5 dd 68 be 20 42 e6 bd 9c 6e 4d 3e
       0.011562211 -0.2274092 -0.11243081 0.20061725
0000d0 11 1d 42 3e eb 50 dc bd 0b 90 30 be fc d4 1e 3c
       0.189564 -0.107576214 -0.17242448 0.009694334
0000e0 90 d9 10 be 8e 85 20 3e 01 2c a7 3e 6d 30 27 3e
       -0.14145494 0.15675947 0.3265076 0.16327067
0000f0 b3 fa 74 3e 5e f3 24 be ac 1d 2c 3c de fb 33 3e
       0.23923759 -0.16108462 0.010505121 0.17576548
000100 6b f1 20 3e 63 35 ce bd 34 29 4e 3e fd a4 88 bd
       0.15717094 -0.100687765 0.20132905 -0.06672094
000110 de 05 28 be b5 a5 9f 3d d2 b8 ae 3d 68 76 ee 3b
       -0.16408488 0.07795278 0.085313454 0.0072772987
000120 2b 6b e2 bc 21 38 8a 3e c0 5b 11 be 9e ea 2d 3e
       -0.027638992 0.26995948 -0.14195156 0.1698403
000130 e0 7f ce 3e fc 47 87 bd 03 b5 4f bb 19 e5 5d bc
       0.40331936 -0.06605527 -0.0031693585 -0.013543391
000140 2c b5 de 3e 74 03 f5 bc 79 8b c1 bd 3a 7d f7 3c
       0.43497598 -0.029908873 -0.094504304 0.03021108
000150 35 6f 76 3d 46 48 41 3e a5 14 be bd 22 bc fa bd
       0.06016465 0.18875226 -0.092812814 -0.12242915
000160 90 f0 a2 3e c7 d7 52 3c ce 87 47 bd ef 58 bc 3e
       0.3182416 0.012868828 -0.048713498 0.367866
000170 8b 04 82 be 4e b9 27 3e 48 72 c8 bc 3d 38 6d 3b
       -0.2539409 0.16379282 -0.024468556 0.003619685
000180 76 eb d1 bd 02 5d 33 bd 6e 1d 0a 3d fa 17 02 be
       -0.10249989 -0.04378987 0.033719473 -0.12704459
000190 83 69 71 3e 5f 68 36 be f8 8f 26 3d 40 e2 05 bd
       0.23575406 -0.17813252 0.040664643 -0.032686472
0001a0 79 76 88 be 0a 30 15 be ad 78 94 3d f3 d4 6d bd
       -0.26652887 -0.14569107 0.072495796 -0.058064412
0001b0 67 9f 6f be 60 d1 92 bd 41 7f b9 3d 63 6f 9d be
       -0.23400651 -0.07168841 0.09057475 -0.30749044
0001c0 24 61 43 be 9f 49 7c 3e ab 51 f7 bd 89 64 72 3d
       -0.19080025 0.24637459 -0.12076124 0.05917791
0001d0 2d 48 8b be bd 4c 25 3d c1 68 89 3e 85 ff df bd
       -0.27203503 0.040356386 0.26837733 -0.10937408
0001e0 d3 97 2a 3d 5a 6b bf 3d e6 23 7f bd b3 8c 01 be
       0.041648697 0.093466476 -0.062290095 -0.12651329
0001f0 3d 1e a2 be f1 07 77 be 9d 78 e5 3d 70 8c 93 be
       -0.31663695 -0.24124123 0.11204646 -0.28818083
000200 00 5f 22 bd ba 3b 16 be fb c4 9b be 3a 76 97 3d
       -0.03964138 -0.14671221 -0.30423722 0.07395597
000210 e5 88 01 be 44 0b 36 3e 83 76 24 bd 94 b4 ce bd
       -0.12649877 0.17777735 -0.040152084 -0.10093036
000220 25 df 31 3d e8 e0 d6 3c 7e 3d 05 be 3c 8b 89 bc
       0.043425698 0.02623029 -0.13011739 -0.016790025
000230 0f 2f e6 bd 4c 3e de 3d 28 ae 4e 3e fc ca 88 3e
       -0.112394445 0.10851726 0.20183623 0.26717365
000240 2b b0 b0 bd 57 2d 5f 3c ef 98 af be dd ae 1a 3e
       -0.086273514 0.01362165 -0.34296367 0.15105768
000250 df 4f 08 bb db bf 83 be 16 ef 04 3e 5b 90 3b 3d
       -0.002079956 -0.25732312 0.12981829 0.045791965
000260 e4 8f b2 be c7 c3 49 bd 9a b0 25 3e 2f d8 1c be
       -0.34875405 -0.049258973 0.1618065 -0.15316842
000270 4d e2 db 3c e2 3b 1b be b3 59 21 bb 82 6d d5 3d
       0.026841307 -0.15159562 -0.0024620115 0.104212776
000280 64 1d 7b 3e 6c 46 62 3d 8b 7a 82 bd 23 96 a8 be
       0.2452293 0.05524294 -0.063710295 -0.32927045
000290 c7 c6 67 3e 7c 76 9b bd 66 04 f3 bb fc fe 72 bd
       0.22634421 -0.075909585 -0.007416296 -0.059325203
0002a0 73 9d 70 bd e1 06 13 3c 83 be a8 3c 6c cc 85 bd
       -0.058743905 0.008973808 0.020598656 -0.06533131
0002b0 53 f1 6a bd 02 3d 2b 3d 91 90 41 be 06 37 f3 bc
       -0.05735905 0.04180623 -0.18902804 -0.029689323
0002c0 16 59 f8 bd d5 23 e8 bc 2e 55 c2 3c 35 06 72 3e
       -0.12126367 -0.028337399 0.023722257 0.2363518
0002d0 45 ea f2 3c 1f 41 81 bd 33 6a 9c be e4 dd 3f 3d
       0.029652724 -0.06311249 -0.30549774 0.04684247
0002e0 56 1f 44 be 67 04 1e be 86 e2 15 3d 1a 47 a9 bd
       -0.19152579 -0.15431367 0.036592983 -0.08265515
0002f0 14 bd 3d 3d 5b 8a a8 3d e5 ad 44 bd 3d 75 11 3e
       0.046322897 0.08229514 -0.0480174 0.14204879
000300 da 7c 2d bd 0a d9 91 3c f3 34 44 3d 84 7d fd 3d
       -0.042355396 0.017803688 0.04790206 0.12377456
000310 45 ec a3 3e a9 51 48 bc 0e fe c8 bd 8e 06 aa 3b
       0.32016197 -0.012226501 -0.09814082 0.0051887697
000320 28 9e 66 be 79 07 a7 be b1 8d d0 3e 66 48 b7 3d
       -0.2252127 -0.3262289 0.40733102 0.08949356
000330 7c 77 d2 3c 16 ae 5e be b2 d9 a2 3d 12 76 7e 3e
       0.02569174 -0.21746096 0.07951678 0.24849728
000340 4e 6c 4f be cd 35 d9 3d 98 9e 7f be 37 e6 8a 3e
       -0.20256159 0.10605965 -0.24962842 0.27128765
000350 71 65 71 3b 5d 7f f7 bb 13 99 0d be de 4d 85 3d
       0.0036834145 -0.0075530247 -0.13827924 0.065089926
000360 7a 15 18 be df 06 66 be 6a 33 2a bc ac 28 86 3d
       -0.14851943 -0.22463559 -0.010388235 0.06550726
000370 8c 93 00 bd 19 4e f5 3d 5d 9a 9f be 7f e7 ab 3e
       -0.03139071 0.119777866 -0.31172457 0.33575055
000380 2a e9 c1 bd 39 43 30 be 28 04 01 3e a3 8d 35 be
       -0.09468301 -0.17213143 0.12599242 -0.17729811
000390 3c ed 07 3e ea 62 2b 3e 4c 0e f5 3d c7 bb 68 bd
       0.13274091 0.16736951 0.119656175 -0.056819703
0003a0 a6 14 9c bd 91 fb 40 be 3b 33 8a 3b 10 6a d7 bd
       -0.07621126 -0.18845965 0.004217533 -0.10518277
0003b0 7d 71 b3 bc ed ad 03 3e c6 14 ce 3c c4 3b fb 3d
       -0.021904701 0.12859316 0.02515639 0.12267259
0003c0 3c f8 4c 3e a0 b8 95 be ca 80 63 be 7d 7e f0 bd
       0.20016569 -0.2924242 -0.22217098 -0.11742876
0003d0 2a c5 0d be 46 09 85 3d 06 ec 49 bd 2c 0d e4 3c
       -0.13844743 0.064959094 -0.049297355 0.027838312
0003e0 6c e3 63 bc ca aa 21 3e 3c 8a 70 3e 0d d4 77 3d
       -0.013909202 0.15787807 0.23490232 0.06050496
0003f0 7b cf bc 3d 25 4f 4d 3e 04 cb 44 be 72 9f 31 be
       0.09219261 0.20049722 -0.1921807 -0.1734598

network_body.linear_encoder.seq_layers.0.bias f4 [256]
000000 d7 af 0c bd 91 85 72 bd c2 8b 79 3d 75 ca 37 3d
       -0.03434738 -0.05920941 0.0609243 0.044870812
000010 94 a1 41 3d 0d 79 28 3d e9 a6 74 3d 84 3c 37 bd
       0.047273234 0.041131068 0.05972949 -0.044735447
000020 11 64 8b bd fe d8 bd bc af 5a 8d 3d e3 b5 83 bc
       -0.068061955 -0.023174759 0.06902062 -0.016077941
000030 eb d8 cf 3d b5 5a 11 bd 24 4b 6c bb a5 44 0a 3d
       0.10148796 -0.035486896 -0.003605553 0.03375687
000040 bd 46 4e bd a1 cf 1d 3d a0 cb 04 3d f9 fa 31 3d
       -0.05036043 0.03852809 0.032420754 0.043452237
000050 ce ae cc 3d 16 2b 34 3d 76 ed 4a 3d 96 27 94 3d
       0.09994279 0.043986402 0.049542867 0.07234113
000060 40 b8 6a 3d 81 a4 9b 3d bc b6 9f 3d d0 64 9a bc
       0.05730462 0.07599736 0.07798526 -0.0188469
000070 4f e2 4d 3d 2a 0e bc bd 62 fc 38 bc 64 31 85 3d
       0.050264653 -0.09182389 -0.0112906415 0.06503561
000080 b3 92 e6 3d c6 fa 4c 3d f5 fb e6 3c bc 20 f3 bc
       0.112584494 0.050043844 0.028196314 -0.029678695
000090 f5 69 f9 bc 9f cc c9 3d 08 d9 ff bc 46 16 cd 3d
       -0.030446032 0.098534815 -0.031231418 0.10014014
0000a0 21 ec 22 bd df cf 98 3d 50 62 89 3d 4e e7 4d ba
       -0.03977597 0.07461523 0.06708205 -0.00078545965
0000b0 ee 4d 1d bd f2 be 9e 3c 68 3c 12 bd c5 3a a5 3d
       -0.038404398 0.01937816 -0.03570214 0.0806785
0000c0 8d 8b 00 bc 83 d2 99 3d ef c6 c9 3d 77 75 ae ba
       -0.0078457715 0.07510855 0.09852397 -0.0013310154
0000d0 fc cd 0a 3c 95 8c a3 3d 14 1b 4f bd 05 25 93 3d
       0.008471962 0.07985798 -0.050562933 0.07184795
0000e0 35 96 b3 3d a5 93 61 bd 57 3d 75 bd e7 e5 06 3d
       0.08768884 -0.055072445 -0.05987295 0.032934096
0000f0 87 2a 9c 3d e3 15 99 3d c7 42 2f 3c db f0 81 3d
       0.07625299 0.07474878 0.010697073 0.06344768
000100 d0 7c a9 3d b3 97 9a 3d 98 2c 02 3d 51 5d 3a 3c
       0.08275759 0.075484656 0.03178081 0.011374787
000110 c9 33 78 bd 4e 11 6e 3d aa fe fc 3a 61 3e 59 bc
       -0.06059626 0.05812197 0.001930197 -0.013259501
000120 54 a5 a1 3d 15 ca 2a bc 31 dc 68 bd 6a ec f5 3c
       0.07892862 -0.010424157 -0.056850616 0.030019958
000130 fb d4 8f bc 75 a7 73 bb d5 cc 3c 3d 9c a3 88 bd
       -0.017557612 -0.003717867 0.04609378 -0.06671831
000140 5b 0c 8e bd dc 35 50 3d 65 fe 8d 3d c3 e9 8d 3d
       -0.0693595 0.050832614 0.069332875 0.06929352
000150 0c 43 a8 3d 6b d0 d4 3d 2c b5 1c 3d ea 34 c9 3c
       0.08215913 0.10391315 0.038258716 0.024561364
000160 b9 6d ab bd dd 05 ad 3d 32 c2 8b 3d 83 b8 31 3d
       -0.08370537 0.08448384 0.06824149 0.043388855
000170 8b 26 a7 3d 37 7a 7d bd f2 e7 86 bc 7a 51 e8 3c
       0.08161648 -0.06188413 -0.016468022 0.028359164
000180 9f b5 07 3d 5f 5f 24 3d 3e 4e ac 3d 07 89 76 bd
       0.03313219 0.040130015 0.08413361 -0.060189273
000190 aa 0d af 3d 5f a7 c2 3c 6e fe be 3d 64 46 6b 3d
       0.08547528 0.02376145 0.09325872 0.057440177
0001a0 67 b4 25 bd d3 61 03 3c 67 03 b6 bc bd d7 08 3d
       -0.04045525 0.008018929 -0.02221842 0.03340887
0001b0 f1 84 11 ba 24 ad 97 3d e9 3b 83 bd a1 78 b5 3d
       -0.0005551121 0.07406071 -0.06407911 0.08860899
0001c0 32 ba 08 bd f2 5e bb 3d 9c 51 80 3d c2 ab cd 3d
       -0.033380695 0.09148969 0.06265566 0.10042526
0001d0 37 0f 70 3d fc 5f c9 bc 0c 1e b2 bc 45 7b b2 3d
       0.05860826 -0.024581902 -0.021742843 0.08714918
0001e0 10 1f 90 3d c1 a2 55 bc 56 e7 7c 3d 79 03 a0 3d
       0.07037175 -0.013039292 0.061744057 0.07813162
0001f0 54 20 1a bc 98 dd 8c 3d 84 6f 45 3d 3c 1c 9b 3d
       -0.009407122 0.06878203 0.048202053 0.07573745
000200 ac a9 77 3d cc 81 50 bd 7a 6b fc 3c 86 2f b1 3d
       0.060464546 -0.050905034 0.030812968 0.086516425
000210 21 28 87 bd 47 4d 75 bd 24 ad b6 3d 88 3d 6d bd
       -0.06599451 -0.05988815 0.08919743 -0.05792001
000220 5d dd b2 3d e6 e6 9a 3d 95 49 97 3d 30 6c 91 3c
       0.08733628 0.07563572 0.073870815 0.017751783
000230 5d d0 97 3d ea 93 cd 3d d7 88 e3 bb cb 62 bd bd
       0.07412789 0.10037978 -0.006943803 -0.09247359
000240 65 92 22 3d 66 89 f8 3b 7c 13 a6 bc 75 ef 63 3d
       0.039690394 0.0075847385 -0.020272963 0.055648286
000250 9c 94 62 3d 74 e2 5f 3d b3 95 54 bd ab 20 4e bd
       0.055317506 0.054659322 -0.051900577 -0.050324123
000260 9d c4 b2 bd c2 aa ab 3d 1c 8e 5d 3d 89 1a 6e 3d
       -0.08728907 0.08382179 0.054090604 0.058130775
000270 7f be 6f 3d 5b ba f3 3c 22 9b 61 3d 8e d9 54 3c
       0.05853128 0.029751947 0.055079587 0.012991322
000280 c5 5b 85 3d 2b 6a 79 3d c4 02 29 3d 66 4e 8f 3d
       0.06511644 0.060892265 0.041262403 0.06997375
000290 f9 8b db 3c f1 86 9d 3c 85 93 3f bc 32 5a 04 bc
       0.026800143 0.019229384 -0.011692886 -0.008078145
0002a0 63 60 84 3d 6b 4e 44 bd 02 55 c1 bc 3d 2e dd 3d
       0.06463697 -0.047926348 -0.023600105 0.10799835
0002b0 af ed 1d bd 24 0a 1c bd cc 29 b6 bc 08 07 97 3a
       -0.03855675 -0.03809561 -0.022236727 0.0011522481
0002c0 65 04 22 3d 3f 10 af bd 26 0f b4 3d 85 f5 1e 3c
       0.039554972 -0.085480206 0.08791952 0.009702091
0002d0 5b 11 b1 3d 69 00 41 3d 47 35 74 3d c6 ea 29 3c
       0.086458884 0.04711953 0.05962112 0.010370916
0002e0 ec 95 ba 3d b7 74 9a 3d 68 f6 38 3d 5a 6e 81 3d
       0.091106266 0.07541793 0.045156866 0.06319876
0002f0 34 e4 04 3d 95 a4 fc 3d 96 58 c7 3d 04 8e 01 3d
       0.032444194 0.12336079 0.09733693 0.031629577
000300 e2 0e be 3d 29 dd a1 3d 40 64 af 3d 4b 4e 15 3d
       0.092801824 0.07903511 0.08564043 0.03645162
000310 d7 80 be 3d db 6f 62 3d a9 9d 90 3d f2 31 62 bd
       0.09301918 0.055282455 0.07061321 -0.055223413
000320 4f 0f ec 3c fc 89 a0 3d ac 6a 8b 3d 5c 3f a1 3d
       0.028815893 0.078388184 0.068074554 0.07873413
000330 ed 31 bd 3c 35 c1 1e bd ea b4 4b 3d 13 13 98 3d
       0.023095096 -0.038758475 0.04973308 0.07425513
000340 65 13 61 bd bb 82 bb 3c 6d 9a d4 bc 5c 74 b5 bc
       -0.054950137 0.022889486 -0.025952542 -0.022150211
000350 02 aa 88 3d 96 f3 05 3d 1b 30 9a 3c f8 71 8d 3d
       0.066730514 0.032703005 0.018821767 0.069065034
000360 da a8 85 bc 4d 1f bf bb 23 a4 85 3d 9a 22 a4 3d
       -0.016315866 -0.0058325888 0.06525447 0.08014412
000370 58 6e d0 bc a4 52 e3 3d aa 7c b8 bd 37 ee cf bc
       -0.025443241 0.11099747 -0.09008153 -0.025382144
000380 49 14 e9 bc 30 74 1d 3c 6f de a3 3d d1 84 78 3c
       -0.028452056 0.009610221 0.0800141 0.015168385
000390 26 e0 a2 3d 39 ce a5 3d fd 50 94 3d ec 8f 02 bd
       0.07952909 0.080959745 0.0724201 -0.031875536
0003a0 06 9d 80 bd 04 3c bd bd 45 21 ce bc d6 b0 e3 3d
       -0.0627995 -0.09239963 -0.025162349 0.11117713
0003b0 ec 2d 91 3d a3 e5 d2 3a 2b e9 73 bd 40 b9 d0 3d
       0.07088837 0.0016090166 -0.05954854 0.10191584
0003c0 e6 4a 96 3d 79 24 76 3d c3 cd 5e 3d bf 28 9b bd
       0.073385045 0.060093377 0.05439545 -0.07576131
0003d0 34 9b 85 3d c9 f1 a0 bd 5f c2 0f bd fb 47 01 3d
       0.06523743 -0.07858617 -0.035097476 0.031562787
0003e0 c9 55 55 3d de be 17 3c ca b5 80 3d 7c 62 22 3d
       0.052083764 0.009261815 0.062846735 0.039644703
0003f0 ee d7 e7 bb 60 d0 06 bd 8c d9 ab 3d a7 10 9b 3d
       -0.0070753014 -0.032913566 0.08391103 0.075715356

network_body.linear_encoder.seq_layers.2.weight f4 [256, 256]
000000 81 4d f5 3c 23 72 79 bd 76 65 ed bc 0e d9 2d 3d
       0.029944183 -0.060899865 -0.028979044 0.042443328
000010 ab d6 8b 3d ff 97 8c 3d 33 07 b2 3d 57 41 dc bd
       0.06828054 0.068649285 0.086927794 -0.1075465
000020 d4 27 d3 3d d7 64 d9 bc 5f 10 aa bd 0f d0 df 3b
       0.10310331 -0.026537342 -0.08303904 0.0068302224
000030 68 fe d5 bc a2 e9 35 3d cd e9 fe 3d 70 00 04 3d
       -0.026122287 0.044412263 0.12446938 0.03222698
000040 31 ac 2b 3a 8f dc 88 bc 41 9a a8 bd 25 73 cb 3d
       0.0006548791 -0.016706733 -0.082325466 0.099340715
000050 37 07 fc bd 2b 8c 50 bd f5 39 6c 3c 61 95 74 3d
       -0.123060636 -0.050914925 0.014418115 0.05971277
000060 99 ef fd bd 7a fe 81 bc 41 42 10 3d d0 6c 94 3b
       -0.12399215 -0.015868414 0.035219435 0.004529573
000070 e1 76 b5 bd b4 bc 37 bd f6 2e ef 3c c9 09 71 3d
       -0.08860565 -0.044857696 0.029197197 0.058847222
000080 5b 35 8b bd 4a a1 16 be e1 bd 51 bc b9 58 67 3d
       -0.06797286 -0.14709964 -0.012801618 0.056481097
000090 9d 36 aa bb 3c 34 9b bd df 3f a3 3d 41 48 58 bc
       -0.0051944987 -0.07578322 0.07971167 -0.01320082
0000a0 f4 37 e2 bd 0d 8c 3d be e6 62 d2 bb 23 40 05 bd
       -0.110458285 -0.18510456 -0.006420481 -0.03253187
0000b0 48 71 1b 3b 6f 76 32 3d 1f 2c ca 3c e1 ca a4 3d
       0.0023718644 0.04356998 0.024679242 0.080465086
0000c0 9f 38 1b bd 2f cc e8 bc f3 f3 f8 bd 8b e3 10 bd
       -0.037895795 -0.028417675 -0.121559046 -0.035373252
0000d0 8a fd 5f bc 52 de 24 3b 10 2e 7e 3c f2 1d 0d bd
       -0.013671288 0.0025156927 0.015513912 -0.034452386
0000e0 46 e7 e5 3c 94 6d d8 3b cb 4d 4d 3d 04 1a 78 3d
       0.028064381 0.0066048596 0.050123017 0.060571685
0000f0 0f 38 97 3c 57 15 ed 3c 46 e6 fa bb 77 27 63 bd
       0.018459348 0.02894084 -0.0076568453 -0.05545756
000100 b7 64 96 bb fb 89 a9 3d c6 2f 4f bd ff cc b3 3b
       -0.004589643 0.08278271 -0.05058267 0.005487084
000110 2a 6e 48 3b 09 f3 ed bd cb b6 8d 3d 89 dd 5c bd
       0.003058324 -0.11618621 0.069196306 -0.05392221
000120 5f e5 04 3b ea bb d8 3c b7 9c a6 3d 17 ae ba bc
       0.0020278317 0.026456792 0.0813536 -0.02278809
000130 09 0a d0 3d 1f 7d db 3d 3c 38 73 bd 11 71 f3 bb
       0.10158164 0.10717224 -0.0593798 -0.00742925
000140 d3 d6 8d ba 04 60 55 3a 52 85 69 3d ef f8 63 3d
       -0.0010821469 0.00081396126 0.05701191 0.055657323
000150 80 32 fb bc 4b 3f 24 be a9 f5 99 bd 07 64 fd 3c
       -0.030663729 -0.1603977 -0.07517559 0.030931486
000160 44 02 27 3b 30 43 b9 3d 5e 35 78 3d 6c c8 41 bc
       0.0025483528 0.09046018 0.06059777 -0.011827569
000170 41 91 4e 3c b0 20 01 bd 2a 58 5a bd 5b 5d c3 3c
       0.012607873 -0.031525314 -0.053306736 0.023848226
000180 66 72 ae bd 77 cc 71 bd 87 7b e7 bd b9 65 d0 39
       -0.085179135 -0.059032883 -0.11302858 0.0003974864
000190 65 2c 37 3a fb 61 82 3d 2e 32 44 3b 2d ce a4 3d
       0.00069875113 0.063663445 0.0029937136 0.080471374
0001a0 3a 78 4e bd a7 ae 5a bc d3 50 2f bd cf 32 be bd
       -0.050407626 -0.013347304 -0.04280169 -0.09287035
0001b0 fb 0d 00 3e b4 8f a4 3c 0e 14 1d 3e 57 49 15 3d
       0.12505333 0.020088054 0.15339682 0.036446895
0001c0 8e dc ab 3d c8 df 97 bd 2c 28 80 bb ed f4 85 bd
       0.08391677 -0.0741573 -0.003911039 -0.065408565
0001d0 cc d5 77 be 7e dc b8 3b 89 3f 47 3d a4 d1 a3 bd
       -0.24202651 0.005641519 0.048644576 -0.0799897
0001e0 a0 e4 b3 bd 08 e1 70 bd 78 b8 24 3d 36 83 80 bc
       -0.08783841 -0.058808357 0.040214986 -0.015687566
0001f0 5a 8e 18 bd b1 70 b8 bd 41 52 87 3d a7 30 ba bd
       -0.037245132 -0.09005869 0.066074856 -0.09091311
000200 6a 64 70 bd 18 f1 a3 bd 0e 2f 16 3d 0e f7 3f bd
       -0.058689512 -0.08004969 0.03666597 -0.04686647
000210 1d 9b e7 3c 60 7a 8c 3d c7 b1 aa bd 2a 50 6a bb
       0.028272206 0.06859279 -0.083346896 -0.0035753348
000220 3a 0b d3 bc ca b7 72 bd 05 35 f1 3d fd b1 8d bd
       -0.02576219 -0.059257306 0.11777691 -0.06918714
000230 77 f4 56 3d e3 77 d1 3c 1b 85 95 3d 13 d3 81 3d
       0.052479234 0.025569862 0.073007785 0.06339087
000240 84 bf 38 bd 96 1f 03 bb c9 88 a0 bc 7c ad 35 be
       -0.04510452 -0.002000784 -0.019596474 -0.1774196
000250 87 d4 6a bc 46 a3 be bd 90 6f 8c bd eb 90 38 3d
       -0.014332897 -0.09308486 -0.06857216 0.04506008
000260 5c b9 8a bd 35 f8 ea bd ea ae f9 3c e7 eb 1e 3c
       -0.06773636 -0.11473123 0.030478913 0.009699798
000270 aa b1 9a 3d 78 30 a8 bc 30 22 90 bd 4f f5 a4 bc
       0.07553418 -0.020530924 -0.07037771 -0.020136504
000280 61 52 87 bc 18 ad 56 3d 83 0e 96 3d a4 69 8c 3c
       -0.016518774 0.05241117 0.07326987 0.017140217
000290 f0 79 0e 3d c8 e3 44 3c c5 10 a2 3c 06 ff aa 3d
       0.034784257 0.012017198 0.019783387 0.08349423
0002a0 13 1d ce bd 49 cc a7 bc ef e7 96 3c d8 2c 1c bd
       -0.10064139 -0.020483153 0.018421141 -0.038128704
0002b0 ca ed 89 bc c1 e9 cc 3c de 8f 1c 3d 19 35 56 bd
       -0.01683702 0.025013806 0.03822314 -0.05229673
0002c0 90 24 7c 3d aa 21 5a 3d 3c 21 3d 3d aa da 59 bd
       0.061558306 0.05325476 0.046174273 -0.05318705
0002d0 0a d8 a8 ba e7 a7 98 3c 76 ad 2b bc 54 12 b8 bd
       -0.0012881767 0.01863475 -0.010478368 -0.08987871
0002e0 2b ca ea bd ba 57 1e be 6b 82 56 3d 57 cd f8 bd
       -0.11464342 -0.15463153 0.05237047 -0.121485405
0002f0 96 09 3d bc d8 65 53 bd 13 4b 55 3d 89 8b 78 bd
       -0.01153793 -0.051610798 0.05207355 -0.060679946
000300 0d 6a ae bd 77 52 10 bd 87 b1 03 3d c2 1e a4 bd
       -0.08516321 -0.035234895 0.032151725 -0.08013679
000310 b7 4c 9a bd dd dd 6c be 19 6c ef 3b bd 96 98 3d
       -0.075341634 -0.23131509 0.0073065874 0.07450626
000320 ca aa ef 3d b4 15 e5 bc a2 76 53 bd 78 9e b0 3c
       0.11702497 -0.02796445 -0.05162681 0.021559939
000330 9e 8a cf 3d b7 99 e5 bc 0c 44 81 bd c3 3a f7 bd
       0.10133861 -0.028027399 -0.06311807 -0.12071755
000340 20 25 cb bd 1d 2c 97 bd db e8 1e bd fc 52 f7 3c
       -0.099191904 -0.07381461 -0.038796287 0.030190937
000350 1a e2 0d 3c 75 df 80 bc a1 f4 af ba 8e 80 c0 bd
       0.008659864 -0.015731553 -0.0013424346 -0.0939952
000360 42 c0 86 bc 48 0d 73 bc 27 61 09 bc 49 6b 47 bb
       -0.016449098 -0.014834709 -0.008384979 -0.0030428937
000370 60 12 8e b9 13 4a e7 bd 1d 49 19 bd fa 7f 5f 3c
       -0.0002709804 -0.112934254 -0.037423242 0.013641352
000380 5d c2 a2 3a 5d a8 49 3d a9 55 47 3d 73 7b 37 3d
       0.0012417544 0.04923283 0.048665676 0.044795465
000390 5d 35 23 3d 06 7b 13 bd 04 ce 70 bd d5 0d 66 bc
       0.039845813 -0.036005996 -0.05879022 -0.014041384
0003a0 cc f3 89 bd 9e 95 9a bd 1a d9 06 be dd 0d 07 be
       -0.06735954 -0.075480685 -0.13168755 -0.13188882
0003b0 57 23 04 3c 9c 1d f9 bd 3c fe c6 3c de 28 b0 bd
       0.008065066 -0.12163851 0.02429115 -0.08601545
0003c0 d0 88 c5 3d 2f 17 37 3b eb fc c8 bc 87 83 2e bd
       0.096452355 0.0027937402 -0.024534663 -0.042605903
0003d0 16 db 3b 3c 3e ee 34 bc 82 e5 65 3d 4a 27 22 3d
       0.011465808 -0.0110431295 0.05612708 0.03958825
0003e0 6a d4 77 3d 61 ef 0a 3d 59 8b 8d 3d 9e 2e cb bd
       0.06050531 0.033919696 0.06911344 -0.09921001
0003f0 ba 77 c5 bd 92 86 24 bd 64 e1 d8 bc 1e 60 fc bd
       -0.09641977 -0.0401674 -0.026474662 -0.123230204

network_body.linear_encoder.seq_layers.2.bias f4 [256]
000000 e6 95 3f bd 37 b6 57 bd 7e d3 ac bc d0 71 86 3d
       -0.046773814 -0.052664008 -0.021096941 0.06564677
000010 db 1b 8e 3d 9a 46 3d 3d fa 9b a4 3d 46 59 9b bd
       0.06938907 0.04620991 0.08037563 -0.07585387
000020 49 bf ab 3d cd a8 62 bb 2f 91 b5 3c 74 44 b1 3d
       0.08386094 -0.0034585476 0.022163955 0.086556345
000030 a5 6e 28 3d 87 dd 7c 3d 76 c6 78 bd a4 5f 6a 3d
       0.041121144 0.061734702 -0.060736142 0.057220116
000040 a9 ff 81 bd b6 76 8d bd 76 e3 83 bc e6 d6 8e 3d
       -0.063475914 -0.06907408 -0.016099673 0.069745824
000050 b5 3f a5 3d 4f 4b 87 bd e5 39 99 bd 52 f4 5b bd
       0.08068792 -0.06606161 -0.07481746 -0.0536998
000060 bf 32 8c 3d bc 8e 94 bd 0a 76 54 3d 5f 55 c5 3d
       0.068456165 -0.07253787 0.051870383 0.09635424
000070 fb 2f 4c 3d 56 92 fe bc bc a9 6c 3d 29 34 a5 3c
       0.049850445 -0.031075638 0.05777906 0.020166473
000080 65 44 89 bd 3a b6 8a bd eb c1 8c bd bd b0 0c 3c
       -0.06702498 -0.06773038 -0.068729244 0.00858706
000090 1c 80 5a bd d8 32 77 bd 29 94 9f 3d 29 c6 49 3b
       -0.05334483 -0.060351223 0.07791931 0.0030788279
0000a0 c8 f7 99 bd e7 53 95 3d 8f b8 aa bc 9e 91 8e bd
       -0.07517964 0.07291394 -0.020839958 -0.06961368
0000b0 13 a4 81 3d a7 2e d2 bd bc 3a 34 3d a8 31 6f 3d
       0.06330123 -0.102628045 0.044001326 0.058396965
0000c0 ed af a6 3d 16 a0 49 3d a2 28 80 3d 42 87 5f 3d
       0.08139024 0.049224935 0.0625775 0.05457235
0000d0 1a 5e 8e 3d 14 4d 9c 3d a8 71 73 3d 97 fd 58 3d
       0.06951542 0.07631889 0.059434563 0.052976217
0000e0 a7 1f 64 3d 5f 8f a1 bd ac ad 70 bd d2 a8 c9 bc
       0.05569425 -0.07888674 -0.058759376 -0.024616633
0000f0 e4 5d 80 3d a5 38 78 bb 52 b6 27 3b cb 58 99 3d
       0.06267908 -0.003787556 0.002559085 0.07487639
000100 7a a1 cf bb bc af 9b bc d8 98 d9 bc 80 24 28 3d
       -0.006336388 -0.019004695 -0.02656214 0.041050434
000110 41 5f 5c 3d 41 d8 43 bd 5b 15 88 bd 7d bd 8b 3d
       0.05380178 -0.047813658 -0.06644698 0.068232514
000120 2c 99 01 3d 31 1a 69 3d 5c ec 3d bd 02 9a 98 bd
       0.031640217 0.056909744 -0.046367988 -0.0745125
000130 38 41 99 3d e7 7e 83 bd 41 8d 3e 3d f0 5b 36 3d
       0.074831426 -0.06420689 0.04652143 0.044521272
000140 a3 d0 68 bd 33 7b a1 3d 8f 80 24 bd 49 d9 50 3d
       -0.056839596 0.078848265 -0.040161666 0.05098847
000150 6f f5 61 bd 13 60 16 bd 70 9a 81 3d 76 bd af 3c
       -0.055165704 -0.036712717 0.06328285 0.021452647
000160 2b b1 a4 3d 73 5f 17 3d 37 63 65 3d 2a 6d 92 3d
       0.080416046 0.03695626 0.05600282 0.07149728
000170 75 6d 4f 3d 88 cf 85 bd ca 86 b9 bc d4 2d a1 3d
       0.050641496 -0.06533724 -0.02264728 0.07870069
000180 4f 28 99 3d 00 49 a7 3d 1b bb 56 bd 05 47 92 bc
       0.074783914 0.081682205 -0.05242453 -0.01785613
000190 08 02 ad 3d 6c c2 93 3d 53 cf f1 bc a7 e8 8a 3d
       0.08447653 0.072148174 -0.029517805 0.06782656
0001a0 4f 48 20 bd 0d 72 07 3d ca 9c 29 bd 97 ec 33 3d
       -0.03913146 0.03306775 -0.04140929 0.0439268
0001b0 d7 e0 20 3d 02 73 81 bd e4 44 31 3d 01 91 7d 3d
       0.039276924 -0.06320764 0.04327859 0.061905865
0001c0 ad ab aa 3d a5 f6 16 3d 22 4e 05 bd 5a a4 a0 3d
       0.08333526 0.036856312 -0.032545216 0.078438476
0001d0 22 15 93 3d 1e e8 5a 3d 6b 47 5f 3c 52 21 08 3d
       0.07181765 0.05344402 0.013627867 0.0332349
0001e0 07 d8 90 ba 4a 61 80 bd a2 11 ea 3a aa 3e 44 bd
       -0.0011050709 -0.062685564 0.0017858038 -0.047911324
0001f0 3f a5 1d bd d9 9c aa 3d bd 6e 5d bb fe 4b 1c 3b
       -0.03848767 0.083306976 -0.003378793 0.0023849006
000200 fc a3 95 3d 25 d2 47 bb f7 05 80 3d ce df 7c 3b
       0.07306668 -0.0030490246 0.06251138 0.0038585546
000210 66 be 4b 3d 8b dc ad 3d 6a fc a1 3d 54 8a 9d bd
       0.049742125 0.08489331 0.07909472 -0.076923996
000220 11 f9 15 3d 05 39 96 3d 70 8e 82 3d 7e 3f a2 3d
       0.03661448 0.07335094 0.06374824 0.079222664
000230 f2 8a 62 bd 6e 6a b0 bb 37 38 8a 3d 3e 1c 64 3d
       -0.05530829 -0.005383781 0.067490034 0.055690996
000240 6d 96 39 3d a0 26 70 3d 58 38 8d bd 3c 6a 77 3b
       0.045309473 0.058630586 -0.06895512 0.003775253
000250 71 4e 5f 3d 22 51 5c bd 7e f6 45 bd 24 93 96 3d
       0.054518167 -0.05378831 -0.048330776 0.073522836
000260 a2 78 fb 3c b4 16 24 bd a9 1a 64 3d d2 4f 5b 3d
       0.03069717 -0.040060714 0.055689488 0.05354292
000270 0c c8 98 3d 94 b6 8a bd 2d 72 29 bc 60 1f 5c 3d
       0.07460031 -0.06773105 -0.010342163 0.05374086
000280 f1 6c 71 3d 03 84 20 3d b6 8b 89 bb 08 18 bb 3b
       0.058941785 0.039188396 -0.004197563 0.005709652
000290 6b 4d 62 bd 7d 94 29 3b 92 20 9e 3c fc f9 8f 3d
       -0.055249613 0.002587586 0.01930264 0.070301026
0002a0 f2 0b ab 3d c6 7d 20 3d 1b 28 05 bd f1 b3 79 bc
       0.08351888 0.039182447 -0.03250895 -0.015240655
0002b0 ea 6a 34 3d d5 ca 82 3d d2 2b 85 bd 1a 95 bb bd
       0.044047274 0.063863434 -0.06502499 -0.09159298
0002c0 ee 12 34 bd 5c 02 78 3c 34 dc 1d bc 81 ae a6 3d
       -0.043963365 0.015137281 -0.00963502 0.08138753
0002d0 c3 7a 8c bd 6e cf 30 3c ff 4c 73 3d 33 2c 42 3d
       -0.068593524 0.010791643 0.0593996 0.047405433
0002e0 2f 39 86 3d c6 e5 49 3d 69 de 9b 3d 34 db 5c 3b
       0.06553876 0.049291395 0.07610781 0.0033699991
0002f0 6e a4 7d bd cc 89 1d 3d 40 e2 cd 3c aa b1 94 bb
       -0.06192439 0.03846149 0.025132298 -0.004537781
000300 e2 a0 9d bc 25 2a 2f 3c 21 2e 83 3d f6 61 5d bd
       -0.019241754 0.0106912 0.06405283 -0.0540485
000310 6c 9f 79 bd f4 a4 10 3d c3 db 5c 3d 3d f4 96 bd
       -0.060943052 0.03531356 0.05392052 -0.073708035
000320 a4 ac 80 3b dd 4f 33 bc d2 89 89 bd f7 0a 53 bd
       0.0039268304 -0.010944334 -0.0671574 -0.05152413
000330 bb fc 94 3d 99 4e b0 bd 5a 59 7e 3d a2 cf 82 3d
       0.07274767 -0.08608741 0.06209693 0.06387259
000340 e3 3a af 3d e0 f2 93 3d ab b3 91 3d 73 5e 9f bd
       0.085561536 0.07224059 0.07114347 -0.07781687
000350 61 f9 a3 3d f4 17 aa 3d db c9 84 3d 92 f9 17 3d
       0.080065496 0.0830535 0.064838134 0.037103243
000360 56 fe 99 3d 9b 28 83 bd 3c 2f 91 3d 81 bd 6a 3d
       0.07519214 -0.06404229 0.07089087 0.05730963
000370 5f 68 4e bd ae 02 d7 bb 23 df 98 3d a3 7c 80 3d
       -0.050392505 -0.0065615987 0.07464435 0.062737726
000380 44 f5 13 3d 93 15 17 3d 63 e9 84 3d 75 13 8e 3d
       0.036122575 0.03688581 0.064898275 0.06937305
000390 7d 6b 74 bd bc 64 77 3d 1b bf 3b 3d b9 39 a5 bd
       -0.05967282 0.060398802 0.04583655 -0.0806765
0003a0 a5 65 71 3d 93 0d 7e 3d 36 bc 15 3d 50 11 62 3d
       0.058934826 0.062024664 0.036556445 0.05519229
0003b0 09 9a 65 bd f4 26 8d 3d 17 81 9c bd 15 0d 0e 3d
       -0.056055102 0.06892195 -0.076418094 0.034680445
0003c0 d9 cb aa 3c bb 5c a5 3d b0 b5 6f 3d 24 d4 2d bd
       0.020849155 0.080743276 0.05852288 -0.04243864
0003d0 78 1b 3f 3d 0d 19 a3 3d 7e dc 87 bd 6b 50 b7 3a
       0.046657056 0.079637624 -0.066338524 0.0013985758
0003e0 14 d2 8c bd 74 75 34 3d 7c 0f 27 bd 2c c6 ab 3d
       -0.06876007 0.044057325 -0.04078625 0.08387408
0003f0 93 93 9d 3d 2c 12 17 bc 6d d9 aa bc 37 1d 97 3d
       0.07694163 -0.009220641 -0.02085563 0.07378619

action_model._continuous_distribution.log_sigma f4 [1, 2]
000000 be 90 40 be 26 38 cf bd
       -0.18805215 -0.10118131

action_model._continuous_distribution.mu.weight f4 [2, 256]
000000 25 92 c3 bc 02 7f 8b bc e9 6d 55 3a cc a1 ab 3c
       -0.023873398 -0.017028335 0.0008141683 0.020951174
000010 8d 83 58 3d fe b7 04 3d b3 d7 55 3d 41 bf a0 bd
       0.05285983 0.03240203 0.05220766 -0.07848979
000020 49 d0 8d 3d 7b 8d af bc 2d 72 7f 3c 70 27 9a 3d
       0.06924493 -0.021429768 0.0155911865 0.07527053
000030 fe 12 4a 3b ff f0 07 3d 37 ae 2e bd df f8 a7 3c
       0.0030834074 0.033188816 -0.042646613 0.020504413
000040 d3 c9 83 bd 30 8e ab bd 1e 52 b5 bc 75 b7 3e 3d
       -0.06434979 -0.083767295 -0.022133883 0.046561677
000050 4f 44 95 3d ba 03 a7 bd 4f e7 a9 bd 7b e7 c6 bd
       0.072884195 -0.08155008 -0.08296072 -0.0971212
000060 87 62 1e 3d 97 87 7c bd 49 8f 26 3d 42 bd 8a 3c
       0.03866818 -0.061652746 0.04066399 0.016935948
000070 30 6e 93 3c a5 29 59 bd b2 99 54 3d 87 22 c7 3c
       0.017996877 -0.05301823 0.051904388 0.024308456
000080 4d 34 44 bd d0 62 2c bd 26 d0 c6 bd 6d af 46 bc
       -0.04790144 -0.042086422 -0.0970767 -0.012126786
000090 c5 3b 10 bd 62 72 83 bd 4f 41 7c 3d be ea 35 3c
       -0.03521325 -0.06418301 0.06158572 0.01110333
0000a0 8f fd 81 bd a1 56 e4 3c 01 83 71 bd 16 34 7f bd
       -0.063471906 0.02787334 -0.058962826 -0.062305532
0000b0 c5 41 42 3d 35 f1 8f bd fd 7f 1a 3d 54 ba 27 3d
       0.047426004 -0.070284285 0.037719715 0.04094918
0000c0 49 2e 8c 3d 33 88 a2 3c 22 41 2d 3c df d5 13 3d
       0.06844766 0.019840335 0.010574611 0.036092635
0000d0 b2 c7 50 3d f6 7b 33 3d a4 c6 4d 3d 02 75 f1 3c
       0.050971694 0.04381939 0.050238267 0.029474739
0000e0 29 fc c9 3c e8 8f 9c bd 49 ed 95 bd f3 1d 94 bb
       0.024656372 -0.076446354 -0.07320649 -0.004520172
0000f0 60 3f d4 3c 07 b5 e9 3b 65 6f bc bd e6 40 87 3d
       0.025909126 0.007132176 -0.09200934 0.06604175
000100 e3 6e ea 3b 00 ac 3b bd e7 6d 58 bd 5e ed e6 3c
       0.007154332 -0.04581833 -0.052839186 0.028189357
000110 90 1d 14 3d 5e ab 97 bd 9e 55 3b bd 5c 89 2c 3d
       0.036161005 -0.074057326 -0.045735948 0.042123184
000120 3e b1 81 bb 2f 23 e0 3c a6 06 3e bd 1c de 84 bd
       -0.0039578965 0.027360527 -0.04639306 -0.064876765
000130 f4 f6 47 3d d8 11 87 bd 90 44 fe 3c de 22 8e 3c
       0.048819497 -0.065952 0.031038553 0.01735061
000140 15 ec 97 bd 82 3d 39 3d ea 93 2b bd ea 11 86 3c
       -0.07418076 0.045224674 -0.04188911 0.016365964
000150 4a 65 a0 bd 09 57 ae bd 61 71 ca 3c 99 78 d3 3b
       -0.07831819 -0.085126944 0.024712266 0.0064535853
000160 2d f1 25 3d cd 7c ba 3c b2 8f 0d 3d 2d 93 77 3d
       0.040513206 0.022764588 0.034560867 0.060443092
000170 4d 4a cc 3c 03 7b 7e bd db 98 ea bc a6 05 3d 3d
       0.024937773 -0.062129032 -0.02863734 0.046147965
000180 a0 90 43 3d ef f4 71 3d f7 69 bc bc ba 59 da bc
       0.047745347 0.059071478 -0.022999747 -0.026654113
000190 1e b8 89 3d 86 86 57 3d fc 2e 34 bd 5f 31 34 3d
       0.06724571 0.052618526 -0.04399012 0.043992396
0001a0 81 cb 8c bc c6 97 46 3c 45 6e 75 bd 33 00 80 3c
       -0.017186882 0.012121147 -0.059919614 0.015625095
0001b0 e0 f1 46 3b b6 97 9b bd e8 82 dd bb 4a 6c 2e 3d
       0.003035657 -0.07597296 -0.00675999 0.04258374
0001c0 ff 9a 60 3d 30 b5 92 3b a6 ca 5c bd 9f e7 31 3d
       0.054835316 0.0044771656 -0.053904198 0.04343378
0001d0 fa 82 7b 3d 55 8c cf 3c 59 c4 e7 bc 0b 38 69 3a
       0.061404206 0.02533547 -0.028291868 0.00088965957
0001e0 cd e6 2e 3c 48 dd e0 bd 17 b0 95 bd 7a 0e d0 bc
       0.010675144 -0.10979706 -0.07308977 -0.025397528
0001f0 70 d2 4e 3b 07 d9 83 3d 73 f4 45 bd 46 69 1d bc
       0.0031558536 0.06437879 -0.048328828 -0.009607619
000200 90 3f 7e 3d 73 59 78 3b b6 d1 22 3d f3 fb c9 bc
       0.062072337 0.0037895113 0.039750777 -0.024656272
000210 ee 3f 1f 3c f1 18 a1 3d b3 b6 4f 3d 8c b1 ae bd
       0.009719832 0.07866085 0.050711345 -0.08529958
000220 a6 8d fc 3c 3b e3 7b 3d e5 0d 4c 3d 10 ee 7f 3d
       0.030829262 0.061496 0.04981794 0.062482893
000230 c2 e3 85 bd c6 7b 34 bc cd 7d 15 3d 7d b5 58 3c
       -0.06537582 -0.011015838 0.036496926 0.013226864
000240 0b 7c c1 3c 00 dd eb 3c 53 ea a7 bd d1 1f 9e bc
       0.023618719 0.028791904 -0.08198991 -0.01930228
000250 63 24 e4 3c c5 20 20 bd f7 53 7d bd 23 54 23 3d
       0.027849382 -0.03909375 -0.061847653 0.03987516
000260 37 22 36 3c e7 40 34 bc 3f c4 87 3b 4d bf 82 3d
       0.011116556 -0.011001802 0.0041432674 0.06384144
000270 94 08 92 3d 73 5c 37 bd 51 ac 21 bc 30 51 5b 3d
       0.071305424 -0.0447659 -0.009867744 0.053544223
000280 4a fa 22 3d a1 f8 c4 3c 41 c4 c6 bc de b5 d6 bc
       0.039789476 0.024044337 -0.024263503 -0.026209768
000290 db 2b 5f bd f5 72 8c 3b a9 e6 09 ba 76 a0 7b 3d
       -0.054485183 0.004286165 -0.00052605063 0.061432324
0002a0 79 6f 65 3d 2a 72 83 bc fc dd f8 3a c9 8b 0e ba
       0.05601451 -0.016045649 0.0018987055 -0.00054377
0002b0 25 0e 82 3c 91 e5 b3 3c 7b 21 a3 bd 71 6e 7e bd
       0.015875885 0.021960052 -0.0796537 -0.062117044
0002c0 16 57 d1 bc a1 35 5b 3c 75 8c 60 bc 57 0e 85 3d
       -0.025554221 0.013379485 -0.013705363 0.06496876
0002d0 db 4e a2 bd a0 1e 95 bd d0 e0 1b 3d 38 70 0b 3c
       -0.07925197 -0.07281232 0.038056195 0.008510642
0002e0 08 38 18 3d 14 a7 d2 3c 17 a4 25 3d 90 94 89 bd
       0.03716281 0.025714435 0.04043969 -0.06717789
0002f0 64 77 9e bd fa 6f 09 bc 0f b4 61 bc c9 eb 86 3b
       -0.07737616 -0.008388514 -0.0137758395 0.0041174632
000300 e8 2d 0d bd 86 d3 f9 3b 89 c5 8a 3d d8 f8 13 bd
       -0.034467608 0.0076240925 0.06775958 -0.036125988
000310 1b d5 81 bd 9c 0c 77 3c 63 bf 17 3d 7c eb 21 bd
       -0.06339475 0.01507869 0.037047755 -0.039531216
000320 da 60 24 bd e1 4c 0a bd 59 26 9d bd a6 20 b9 bc
       -0.040131427 -0.033764724 -0.0767333 -0.022598576
000330 d1 95 65 3d 84 83 91 bd 13 e6 08 3d d6 c8 18 3d
       0.05605108 -0.07105163 0.03342254 0.037300907
000340 65 0e 29 3d 41 d2 63 3d b8 94 30 3d 13 26 c0 bd
       0.041273493 0.055620436 0.04311058 -0.09382262
000350 73 a8 73 3d a2 45 60 3d b4 c7 1b 3d df 95 b2 3c
       0.059486818 0.054753907 0.03803225 0.02179998
000360 12 90 7c 3d 68 1b 4b bd 89 af 47 3d f2 14 b0 3c
       0.061660834 -0.049586684 0.048751388 0.021494363
000370 31 9a 01 bd 01 09 e2 bc 27 27 84 3d 1d 41 f8 3c
       -0.03164119 -0.027592184 0.0645278 0.030304486
000380 04 20 e5 3c 12 9f 1b 3c ed e1 0e 3d 53 95 45 3d
       0.027969368 0.009498375 0.03488343 0.04823811
000390 93 a2 bd bd ce a7 22 3d e4 89 01 3d 97 04 b0 bd
       -0.09259524 0.039710812 0.031625643 -0.085946254
0003a0 12 36 28 3d 73 ae df 3c ef 4b a1 3c 82 af b3 3c
       0.04106719 0.027304864 0.019689528 0.021934275
0003b0 96 33 49 bc 00 82 c9 3c 10 c5 8d bd 9b f4 85 3c
       -0.012280365 0.024598122 -0.06922352 0.016351989
0003c0 d8 b2 e6 3c 2e 6e 0c 3d 5f de 27 3d 04 be e6 bc
       0.028161451 0.034284763 0.040983554 -0.028166778
0003d0 19 d1 a0 3c b1 69 3d 3d e4 47 c7 bd f8 5b 66 3b
       0.019630956 0.046243373 -0.09730509 0.0035150032
0003e0 24 35 4d bd 02 22 e8 3c 92 83 80 bd d4 a0 90 3d
       -0.050099507 0.028336529 -0.06275095 0.070619255
0003f0 62 ee 74 3d 6c 41 cd bc 97 74 dd bd dc a4 32 3d
       0.059797652 -0.02505561 -0.108132534 0.043614253

action_model._continuous_distribution.mu.bias f4 [2]
000000 ce 51 93 3d 8b c2 1e bc
       0.071933374 -0.009689937

64 f4 [28]
000000 ae a9 c0 3e 77 91 8d 3a 8c a9 c0 3e 9c 19 82 3e
       0.37629455 0.0010800798 0.37629354 0.25410163
000010 6d 44 26 3e cd 57 17 3a 2d 44 26 3e 7c ba 54 3e
       0.1623704 0.0005773276 0.16236944 0.20774263
000020 84 d7 38 3e 4e 4b 6f 3a f4 d6 38 3e 04 39 53 3e
       0.18050963 0.0009128348 0.18050748 0.20627218
000030 54 c9 98 3d 36 5b 39 3a 92 c7 98 3d 73 c0 b4 3d
       0.07460275 0.00070707814 0.0745994 0.08825769
000040 47 a2 9e 3d fd 07 56 3a 0e a0 9e 3d 48 c6 ee 3d
       0.07745796 0.00081646425 0.07745372 0.11658913
000050 e5 ea 58 3c 03 08 d6 39 7b d0 58 3c f9 3f 30 3d
       0.013239597 0.0004082323 0.013233299 0.04302976
000060 9c 75 b3 3c fc 07 56 3a ae 55 b3 3c 45 0d 72 3d
       0.021906666 0.0008164642 0.021891441 0.059094686

67 f4 [8]
000000 79 f9 2e 3f 84 4e a3 3a 5f d0 3a 3f 9e c0 2d 41
       0.68349415 0.0012459313 0.729742 10.859526
000010 98 3a 2c 3f 53 4c 71 3d 8f 20 3c 3f 29 a0 65 3e
       0.67276907 0.05891068 0.7348718 0.22424378
