Assets/NeuralNetworks/NN/ReinforcementLearning/KartBehavior.onnx (onnx, 309408 bytes, 11 tensors)

network_body.observation_encoder.processors.0.normalizer.running_mean f4 [28]
0.8446013 2.2021181e-06 0.15539466 0.5860312 0.9355024 4.893606e-07 0.064496785 0.43741855
0.9737227 2.4468005e-07 0.026274012 0.276876 0.99124044 6.117008e-07 0.008751239 0.20925833
0.986211 0.0 0.0137827005 0.14573923 0.9939406 9.787209e-07 0.006058053 0.18108067
0.9918452 0.0 0.008149098 0.11381382
00000000: ca37 583f 1ac8 1336 c71f 1f3e 2406 163f
00000010: 167d 6f3f 9b5c 0335 e416 843d 53f5 df3e
00000020: e445 793f 925c 8334 993c d73c b1c2 8d3e
00000030: efc1 7d3f c233 2435 5b61 0f3c d147 563e
00000040: 5378 7c3f 0000 0000 d6d0 613c aa3c 153e
00000050: e472 7e3f 985c 8335 a282 c63b 366d 393e
00000060: 91e9 7d3f 0000 0000 cb83 053c 3817 e93d

network_body.observation_encoder.processors.1.normalizer.running_mean f4 [10]
5.097307e-09 0.31778392 -3.657706e-09 -0.6106385 8.791679 14.153871 0.0076814103 -0.070774
-0.08993927 0.8844478
00000000: 6324 af31 93b4 a23e 0b5b 7bb1 ce52 1cbf
00000010: b8aa 0c41 4176 6241 57b4 fb3b f5f1 90bd
00000020: 1432 b8bd 2c6b 623f

network_body.linear_encoder.seq_layers.0.weight f4 [256, 38]
-0.030583223 -0.13033162 0.022795808 0.3202614 0.06809651 0.0040847464 0.10251814 0.2391424
0.07463143 0.08028809 0.17621878 0.08907499 0.023293419 0.13618357 0.111907125 -0.402406
0.016272767 0.35703266 0.52286327 -0.035944447 0.14991646 -0.025540696 0.0560432 -0.087386005
0.16938424 0.0673958 -0.37096587 -0.0727532 -0.17986299 -0.24958529 0.08112794 0.1502951
-0.08351071 -0.29150468 -0.06764876 -0.09299832 0.0030199487 -0.06919052 -0.1980515 0.2995039
-0.039984588 -0.2065909 -0.26610065 -0.0060254848 0.27368438 -0.024057645 0.25809363 -0.0014401377
0.26612842 -0.09212474 -0.014164024 0.2727384 0.054627594 -0.06115166 0.17061542 0.12325283
-0.038579118 0.25862432 -0.11924518 0.03463013 0.20365931 -0.119632535 -0.11588189 0.10669258
0.1996139 0.3282847 0.08691028 -0.0075043323 -0.07127903 -0.08526725 0.2169987 -0.18267761
0.030540813 -0.055372503 0.102082 -0.17052767 0.1002836 -0.0298111 0.07917718 -0.068160795
0.1317024 0.21536712 0.18096061 -0.013904672 -0.24954416 -0.20388049 -0.14124528 -0.055735126
-0.09331572 -0.3517266 0.14052461 0.06876686 -0.031166812 -0.15184216 -0.10303784 -0.022854071
-0.24824642 0.091757946 0.059320297 -0.014690045 -0.12391562 0.082576126 0.054773115 0.104203746
-0.081729196 -0.0908626 0.07117587 0.28965008 0.09760754 -0.058972217 0.037677333 -0.16655272
0.008564692 -0.23756175 0.24133873 0.25452903 -0.4388739 0.17821978 0.10295861 0.06061145
0.18586412 -0.20425309 0.03844897 -0.057629105 -0.00767225 0.14731893 -0.12986058 -0.0154944
-0.14902659 -0.19307786 0.049784634 -0.1956832 0.07920414 0.24971041 -0.03820214 -0.033710513
-0.28988567 0.0136643285 0.2214087 0.058731586 0.09810497 0.052778132 -0.03962026 0.11077667
-0.05229832 -0.022486884 0.16907376 0.13433672 0.090815306 -0.0427686 0.09994546 0.3204637
-0.42219085 0.27414638 -0.008777286 0.18101607 0.055298544 0.33131438 0.1653439 0.14204445
0.05047085 0.11704962 0.0017806798 -0.21289328 -0.13519791 -0.028810235 0.10727253 -0.1228569
0.030131571 -0.27905235 -0.102325216 -0.033400893 0.03551855 -0.089179575 0.094579495 -0.34199452
0.16212891 -0.117046 0.0028972146 0.17402627 0.23422383 -0.09247287 0.045471832 -0.19514912
-0.20241249 -0.050433308 -0.14554048 -0.030997355 0.24243619 0.108913 0.008253481 0.10439464
-0.2664862 -0.24736886 -0.16791493 0.1862872 -0.13891096 -0.07580604 0.31348437 0.17173374
-0.19366117 -0.2635426 -0.12591767 -0.053840254 0.109917775 0.2107635 0.17125145 -0.07993523
-0.13792112 -0.07157307 -0.04932421 0.16724153 -0.0075000417 0.20394967 -0.0821914 0.20379528
0.21444878 -0.08426159 -0.0069879284 -0.06471417 -0.20396282 0.21799377 0.1713229 -0.15385261
0.03128875 -0.15793693 0.15108886 0.10915124 -0.08624415 -0.23102811 0.053319644 -0.18324022
0.1653127 0.0006840048 0.25996026 -0.2850507 0.41904354 0.041198827 -0.07787469 -0.12795131
0.13593203 -0.049443714 0.017071588 -0.14974332 -0.17593157 0.17889318 0.25178853 -0.3499545
0.11788283 0.3247835 0.1036446 -0.13566169 -0.07461523 0.06974574 -0.2710013 -0.16459896
00000000: ab89 fabc a775 05be 46be ba3c 4df9 a33e
00000010: 2f76 8b3d 56d9 853b 08f5 d13d bfe1 743e
00000020: 5dd8 983d 156e a43d b272 343e f36c b63d
00000030: d7d1 be3c b573 0b3e 902f e53d 2908 cebe
00000040: 774e 853c fccc b63e 5eda 053f 7c3a 13bd
00000050: b383 193e b93a d1bc 8e8d 653d 6ff7 b2bd
00000060: 1073 2d3e cf06 8a3d 3def bdbe a1ff 94bd
00000070: 012e 38be 4993 7fbe 6826 a63d f5e6 193e
00000080: aa07 abbd 1a40 95be 6f8b 8abd e775 bebd
00000090: 55ea 453b c2b3 8dbd 03ce 4abe 9358 993e
000000a0: e1c6 23bd 918c 53be 583e 88be 6e71 c5bb
000000b0: 5c20 8c3e 8a14 c5bc d924 843e 01c3 bcba
000000c0: fc41 883e e5ab bcbd 3910 68bc 5ea4 8b3e
000000d0: 2fc1 5f3d 2a7a 7abd cfb5 2e3e fb6b fc3d
000000e0: 2305 1ebd 686a 843e d136 f4bd 53d8 0d3d
000000f0: 118c 503e e701 f5bd 7c53 edbd a481 da3d
00000100: 9667 4c3e ef14 a83e 04fe b13d e7e6 f5bb
00000110: bdfa 91bd 99a0 aebd e834 5e3e d70f 3bbe
00000120: ba30 fa3c 47ce 62bd 5e10 d13d ce9e 2ebe
00000130: 7d61 cd3d 6836 f4bc a527 a23d e397 8bbd
00000140: fedc 063e 3389 5c3e bd4d 393e 6cd0 63bc
00000150: 8188 7fbe 0cc6 50be 9aa2 10be 844a 64bd
00000160: 501c bfbd 8215 b4be afe5 0f3e a4d5 8c3d
00000170: 8b51 ffbc 837c 1bbe 8105 d3bd 7638 bbbc
00000180: 4f34 7ebe 97eb bb3d d7f9 723d 84ae 70bc
00000190: 79c7 fdbd ac1d a93d c659 603d c668 d53d
000001a0: a361 a7bd 2c16 babd a8c4 913d 044d 943e
000001b0: 76e6 c73d da8c 71bd 8c53 1a3d cc8c 2abe
000001c0: ec52 0c3c 6343 73be 8021 773e a151 823e
000001d0: 14b4 e0be 3f7f 363e f7db d23d b643 783d
000001e0: 2a53 3e3e b927 51be ab7c 1d3d 7f0c 6cbd
000001f0: 7f67 fbbb c6da 163e 2cfa 04be 39dc 7dbc
00000200: 6d9a 18be 34b6 45be f9ea 4b3d 2d61 48be
00000210: c835 a23d 16b4 7f3e d979 1cbd 0914 0abd
00000220: e56b 94be 59e0 5f3c f6b8 623e 8890 703d
00000230: 42eb c83d e22d 583d db48 22bd e1de e23d
00000240: c336 56bd 6a36 b8bc ac21 2d3e 918f 093e
00000250: 60fd b93d 212e 2fbd 35b0 cc3d d113 a43e
00000260: 6629 d8be ea5c 8c3e 9bce 0fbc 475c 393e
00000270: ba80 623d 0aa2 a93e e94f 293e 1a74 113e
00000280: 86ba 4e3d b6b7 ef3d b365 e93a b200 5abe
00000290: 5271 0abe 7103 ecbc b3b1 db3d 669c fbbd
000002a0: 7cd6 f63c f3df 8ebe e28f d1bd 60cf 08bd
000002b0: e67b 113d c8a3 b6bd e5b2 c13d e819 afbe
000002c0: 1f05 263e d0b5 efbd 32df 3d3b f133 323e
000002d0: 5fd8 6f3e 6b62 bdbd ac40 3a3d 2cd5 47be
000002e0: 3845 4fbe 2893 4ebd 9008 15be 2aee fdbc
000002f0: 3141 783e c70d df3d 9c39 073c dbcc d53d
00000300: e170 88be 434e 7dbe e4f1 2bbe 12c2 3e3e
00000310: ad3e 0ebe 3240 9bbd 0681 a03e f8da 2f3e
00000320: 1d4f 46be 0eef 86be 90f0 00be 9987 5cbd
00000330: 921c e13d 63d2 573e 8a5c 2f3e 15b5 a3bd
00000340: 323b 0dbe e794 92bd 2f08 4abd 5d41 2b3e
00000350: e9c2 f5bb 2fd8 503e f753 a8bd b6af 503e
00000360: 7698 5b3e 5791 acbd fefa e4bb dd88 84bd
00000370: a1db 50be c239 5f3e 456f 2f3e 8a8b 1dbe
00000380: a228 003d 38ba 21be 0ab7 1a3e af8a df3d
00000390: c6a0 b0bd a292 6cbe b365 5a3d 53a3 3bbe
000003a0: bc47 293e c94e 333a 8319 853e 2af2 91be
000003b0: e08c d63e 1ac0 283d c47c 9fbd ab05 03be
000003c0: c431 0b3e 7e85 4abd b7d9 8b3c 5056 19be
000003d0: 6827 34be c62f 373e 6dea 803e 3c2d b3be
000003e0: 8e6c f13d 064a a63e 9f43 d43d e6ea 0abe
000003f0: dfcf 98bd dbd6 8e3d afc0 8abe a18c 28be

network_body.linear_encoder.seq_layers.0.bias f4 [256]
0.064018145 -0.061003048 -0.084364876 0.02274058 0.06887098 0.003555143 0.07395031 0.06650962
0.05957451 0.083752334 0.01634084 0.00619893 0.05992427 0.038995735 -0.025871353 0.052163705
-0.011364059 0.060714535 0.087858215 -0.037016466 0.06779109 0.07983645 0.031957887 -0.030999549
-0.100434475 0.05890354 0.008684629 0.09306074 -0.028602077 0.047633868 -0.08153439 -0.07833729
0.037975915 0.04541126 0.044374373 0.042292334 0.08717373 0.024390714 0.04298955 0.05630546
-0.030267727 -0.0295915 0.04447843 0.072852604 -0.047546428 0.059443664 -0.0146272415 0.061225954
0.037225444 0.012594913 -0.034890022 -0.0048196297 -0.041159812 0.058204588 -0.021974038 0.080089465
0.035907403 0.0717158 0.00020535107 0.09021963 -0.06940065 0.020614175 0.08422968 -0.03493327
0.088656306 0.006645554 0.051987194 0.048963003 0.06196001 -0.06424654 -0.01115861 0.046837408
0.058307897 -0.013547837 -0.046170585 0.029074706 0.010714836 -0.012678281 -0.036149263 0.059362426
0.058589254 0.087201774 -0.043722555 0.0042618774 0.09529807 -0.06060077 -0.018877946 0.0010930909
0.07632687 0.054334786 -0.08040767 0.061868407 0.018281693 0.052041296 0.04360004 0.048563085
0.0052846004 -0.0052411067 -0.0080537805 0.06742587 0.0071998914 -0.0039582043 0.039703816 -0.01590446
-0.051561568 -0.035603896 0.05338663 0.0039668554 0.08592816 0.02728471 -0.013192143 0.06698577
0.057485368 0.031455684 0.0053011496 -0.0207483 0.08906758 -0.060768463 -0.02572662 0.012861915
0.057527345 0.04534348 -0.050941475 -0.019210532 -0.03943478 -0.028600087 0.03469246 -0.023507455
0.022287622 0.024523245 -0.04523021 0.069967136 -0.0285542 0.04025594 0.012771058 -0.05843334
0.02836412 -0.0040203556 0.061089564 -0.0034885698 0.038090948 0.034796234 0.035661656 0.0081565045
0.09003734 0.01373134 -0.0064759464 -0.026585793 0.055171747 0.02919242 -0.00648658 0.06363948
0.0072311563 0.05761365 -0.025710247 0.046682928 -0.012864113 0.06961292 -0.030467289 0.07624461
0.042090178 0.020456918 -0.03248075 -0.050385583 -0.050901655 -0.03879719 0.06426729 -0.01678817
-0.02463388 0.06740782 -0.0953754 0.03065217 0.031710073 0.04895208 0.049042553 0.08097121
0.021791391 0.067795314 0.08027323 0.018035756 0.034693845 0.045744427 0.04646871 -0.026209619
-0.013544631 0.10556717 0.0019399931 -0.031452954 -0.0012467987 0.040228248 -0.014631628 0.019266555
0.047433026 0.04542911 -0.054772876 0.08939112 -0.008186411 0.059677426 0.05480122 -0.0099274255
0.06607975 0.07980671 -0.00026916075 0.053714495 -0.010777188 -0.0062125493 0.07590666 0.04623914
0.034154363 0.047806114 0.051108815 -0.07375203 -0.037608583 -0.035726856 -0.04257138 0.015949627
-0.06585819 0.04097408 0.018404841 -0.017470008 -0.05131248 0.013454903 0.041296158 0.0030449452
0.024666443 -0.06367985 0.075286135 -0.07595393 0.048614603 0.05814318 0.02140351 0.0036550527
0.034155354 0.054581787 -0.061981298 0.06579642 0.023397708 0.018866912 -0.100149676 -0.01927143
-0.014996053 0.0737254 0.06330976 0.01689853 -0.039031334 0.024056053 0.00394104 -0.014781025
0.07044713 -0.04753834 0.09146345 0.0005635908 0.01767745 0.0016067787 -0.013062811 0.03625542
00000000: f21b 833d 55de 79bd 7ec7 acbd 744a ba3c
00000010: 3a0c 8d3d 67fd 683b 4373 973d 3236 883d
00000020: 6704 743d 5886 ab3d 3add 853c 6520 cb3b
00000030: 2773 753d feb9 1f3d 29f0 d3bc 9ca9 553d
00000040: 5130 3abc ceaf 783d 02ef b33d 949e 17bd
00000050: 0ed6 8a3d 4b81 a33d 46e6 023d c4f2 fdbc
00000060: 97b0 cdbd d744 713d f949 0e3c a196 be3d
00000070: e74e eabc bb1b 433d 81fb a6bd 4d6f a0bd
00000080: a28c 1b3d 2801 3a3d e7c1 353d ba3a 2d3d
00000090: 2488 b23d 09cf c73c cf15 303d 8ea0 663d
000000a0: 06f4 f7bc e069 f2bc 042f 363d bf33 953d
000000b0: 0bc0 42bd 337b 733d 19a7 6fbc 11c8 7a3d
000000c0: b579 183d e55a 4e3c d7e8 0ebd fced 9dbb
000000d0: 3197 28bd ef67 6e3d e602 b4bc f205 a43d
000000e0: a413 133d bcdf 923d 8253 5739 12c5 b83d
000000f0: ee21 8ebd 0fdf a83c 9c80 ac3d 3016 0fbd
00000100: 7091 b53d f3c2 d93b 86f0 543d 6e8d 483d
00000110: c8c9 7d3d b193 83bd 9ad2 36bc 95d8 3f3d
00000120: 43d4 6e3d bff7 5dbc 5e1d 3dbd 142e ee3c
00000130: 488d 2f3c 91b8 4fbc 4011 14bd 0426 733d
00000140: 49fb 6f3d d896 b23d 6c16 33bd 38a7 8b3b
00000150: a22b c33d 8338 78bd eca5 9abc 0b46 8f3a
00000160: 4351 9c3d 278e 5e3d c7ac a4bd ba69 7d3d
00000170: 7dc3 953c 4129 553d f595 323d 16ea 463d
00000180: 712a ad3b 97bd abbb 01f4 03bc 9316 8a3d
00000190: 11ed eb3b d3b3 81bb 78a0 223d 124a 82bc
000001a0: 3932 53bd 64d5 11bd f0ab 5a3d 65fc 813b
000001b0: 1afb af3d 2f84 df3c dc23 58bc d62f 893d
000001c0: c775 6b3d add7 003d 44b5 ad3b 57f8 a9bc
000001d0: 1069 b63d 5ae8 78bd a2c0 d2bc c8ba 523c
000001e0: cba1 6b3d 16ba 393d 02a8 50bd 685f 9dbc
000001f0: 5d86 21bd bb4a eabc ae19 0e3d b592 c0bc
00000200: 8894 b63c f9e4 c83c 5043 39bd ee4a 8f3d
00000210: 7fea e9bc 6ae3 243d b33d 513c cc57 6fbd
00000220: df5b e83c 30bd 83bb 0d39 7a3d 7da0 64bb
00000230: 4105 1c3d 7f86 0e3d f511 123d dca2 053c
00000240: 7f65 b83d 6af9 603c 2d34 d4bb 73ca d9bc
00000250: c5fb 613d f124 ef3c 608d d4bb 6a55 823d
00000260: 56f3 ec3b 4afc 6b3d 4c9e d2bc 9936 3f3d
00000270: 00c4 52bc 3891 8e3d 8996 f9bc 2226 9c3d
00000280: c066 2c3d 4495 a73c 890a 05bd 1d61 4ebd
00000290: 417e 50bd cde9 1ebd 929e 833d 5887 89bc
000002a0: fecc c9bc 1c0d 8a3d 2d54 c3bd 421a fb3c
000002b0: 6ce2 013d fa81 483d d8e0 483d 3cd4 a53d
000002c0: dc83 b23c 45d8 8a3d 4b66 a43d b9bf 933c
000002d0: 221b 0e3d 825e 3b3d f955 3e3d 8eb5 d6bc
000002e0: 4dea 5dbc 9a33 d83d 5e47 fe3a d0d4 00bd
000002f0: 9f6b a3ba 60c6 243d 7fb9 6fbc e5d4 9d3c
00000300: 2249 423d e013 3a3d 8659 60bd b112 b73d
00000310: 4c20 06bc 5170 743d 3e77 603d a4a6 22bc
00000320: d254 873d b371 a33d 251e 8db9 bb03 5c3d
00000330: ce92 30bc a492 cbbb f374 9b3d 4165 3d3d
00000340: 72e5 0b3d 58d0 433d 7a57 513d 4e0b 97bd
00000350: 750b 1abd 5356 12bd 545f 2ebd cba8 823c
00000360: a9e0 86bd 70d4 273d c0c5 963c 431d 8fbc
00000370: 092d 52bd f471 5c3c 2926 293d b48d 473b
00000380: 4811 ca3c 956a 82bd 9e2f 9a3d bc8d 9bbd
00000390: 1b20 473d 8b27 6e3d 6a56 af3c 9c89 6f3b
000003a0: 7ce6 0b3d 2791 5f3d 1ae0 7dbd 46c0 863d
000003b0: 8dac bf3c c88e 9a3c 461b cdbd 1edf 9dbc
000003c0: 01b2 75bc 58fd 963d 8ca8 813d c96e 8a3c
000003d0: 52df 1fbd 3311 c53c d723 813b 1d2c 72bc
000003e0: 9646 903d 90b7 42bd 3051 bb3d f0bd 133a
000003f0: 4dd0 903c 8c9a d23a 6705 56bc 9080 143d

network_body.linear_encoder.seq_layers.2.weight f4 [256, 256]
-0.18615453 -0.015976148 0.08128443 -0.026677594 0.007784363 -0.039028157 0.08492321 -0.036370218
0.07981382 0.08438172 0.013439132 -0.04299779 0.057535067 -0.0766248 -0.053681847 0.047300946
0.104793616 0.059077263 0.16289094 -0.067626506 -0.10814698 0.032392263 0.09297362 -0.055398405
0.09796869 -0.21468751 -0.15503621 -0.035024937 -0.07753242 0.009589376 0.04052277 0.021083537
0.025338516 0.12258778 -0.07343212 -0.0024324 -0.18352552 -0.013296814 -0.010428484 -0.08670893
-0.016662933 -0.11014958 0.038823307 0.066589095 -0.12070363 0.11193825 0.11628508 -0.05950148
-0.12061723 -0.071901836 -0.11109051 0.15922418 -0.12958743 -0.13611959 -0.0009992693 -0.1418604
-0.049934335 0.0793677 -0.08277731 0.04964734 -0.05943509 -0.1269118 -0.041148677 0.04397614
0.13076913 0.06300008 -0.078784 0.116231166 0.011310782 -0.13976848 0.06941864 -0.17773011
-0.11135285 -0.04789758 -0.0005903146 -0.07036768 0.17704576 -0.061097432 -0.014563242 -0.08759779
0.07600835 -0.104284674 -0.11485693 -0.085592866 0.10305035 0.08121095 -0.07298591 0.05417489
-0.026961245 0.011769767 -0.07507914 0.085032485 -0.12545602 0.137625 0.018434552 -0.08613487
-0.08471799 0.032954764 0.050973896 -0.07491768 -0.081613205 0.03205615 -0.016687289 -0.014161082
-0.022077128 0.06192603 -0.0928574 0.002147305 0.15171993 -0.18973488 0.0062526013 0.19652803
-0.02200666 -0.044822562 -0.01047018 0.08661591 0.0007980509 0.093786955 0.035209097 -0.13891165
-0.18698707 -0.005531289 -0.043295175 0.0114736175 0.022140468 -0.12156085 -0.10536363 -0.2078652
-0.09738168 -0.08904382 -0.08473139 -0.16112402 -0.017328272 -0.105391726 -0.012537014 -0.17822006
0.060856692 0.08722571 0.048343163 -0.09046718 -0.09076917 -0.0873744 0.16802657 -0.057160486
0.21062487 0.027546087 0.019677317 -0.0013815846 -0.07461891 0.048869 -0.1332603 0.04456264
-0.02374449 -0.20180137 0.0121463835 -0.034550216 -0.0041607185 0.11501923 0.10431247 -0.020961735
0.0075418307 -0.07322094 -0.09457276 -0.0048586456 0.0129467985 -0.0757981 -0.062476214 -0.00288739
0.06501669 -0.097750254 -0.058994908 0.08847908 -0.12406688 -0.011261542 0.11140247 0.148554
0.018875364 -0.056111626 -0.06713278 -0.07210133 0.028230906 -0.00030493765 0.030986022 -0.025122866
-0.1499739 0.060619704 0.16990605 -0.060197383 0.013667382 -0.07404681 -0.039665002 0.011860179
-0.039603423 0.15020584 -0.004811789 -0.05742015 -0.09369313 -0.059119742 0.019753128 -0.010621744
-0.08414181 0.1490585 -0.10877986 -0.18603306 -0.06338468 -0.02481311 -6.217584e-05 -0.06748742
0.052278798 0.060088802 -0.102641575 0.120290704 -0.057917625 -0.13000682 -0.12187822 -0.01162142
-0.015947506 -0.042182393 0.03246846 -0.059170935 0.034309406 0.02532151 -0.008071361 -0.07339547
-0.11850116 -0.005415868 0.098516434 -0.1188466 0.08942053 -0.07629443 0.15815763 0.07844895
-0.045669243 0.009277891 0.017862637 -0.13592413 0.07466883 -0.033114146 -0.07977087 -0.0685049
-0.025285678 -0.21212731 -0.13115112 0.034873888 -0.15880911 -0.1182785 -0.025671434 -0.03483674
-0.06709911 0.0161422 -0.04974221 0.122729555 -0.045497477 0.008022962 0.034229405 -0.051340953
00000000: 4b9f 3ebe 69e0 82bc 7478 a63d f88a dabc
00000010: f813 ff3b fddb 1fbd 38ec ad3d f0f8 14bd
00000020: 6e75 a33d 53d0 ac3d ce2f 5c3c 731e 30bd
00000030: e4a9 6b3d 77ed 9cbd 7fe1 5bbd a3be 413d
00000040: 099e d63d 00fb 713d e2cc 263e c47f 8abd
00000050: 2a7c ddbd c0ad 043d f468 be3d 70e9 62bd
00000060: cfa3 c83d 0bd7 5bbe d0c1 1ebe 4f76 0fbd
00000070: 51c9 9ebd c21c 1d3c 34fb 253d 62b7 ac3c
00000080: b892 cf3c 4d0f fb3d 9463 96bd e668 1fbb
00000090: 1dee 3bbe e1da 59bc 3bdc 2abc 7494 b1bd
000000a0: b480 88bc 1a96 e1bd 3005 1f3d dd5f 883d
000000b0: 7733 f7bd e23f e53d df26 ee3d d3b7 73bd
000000c0: 2b06 f7bd 4541 93bd 6c83 e3bd aa0b 233e
000000d0: 91b2 04be ef62 0bbe eaf9 82ba da43 11be
000000e0: f287 4cbd 888b a23d 2687 a9bd 025b 4b3d
000000f0: 3572 73bd 2bf5 01be 848b 28bd 5320 343d
00000100: 58e8 053e 3006 813d 8159 a1bd 9b0a ee3d
00000110: dc50 393c 781f 0fbe 5c2b 8e3d e2fe 35be
00000120: f70c e4bd 4130 44bd 58bf 1aba ee1c 90bd
00000130: 7c4b 353e 4d41 7abd aa9a 6ebc 7866 b3bd
00000140: 44aa 9b3d 3493 d5bd 1c3a ebbd 504b afbd
00000150: 100c d33d ed51 a63d a379 95bd 7de6 5d3d
00000160: d4dd dcbc fbd5 403c 18c3 99bd 8325 ae3d
00000170: 8b77 00be 91ed 0c3e 0f04 973c 7b67 b0bd
00000180: a080 adbd 93fb 063d 01ca 503d 716e 99bd
00000190: d324 a7bd 4f4d 033d c8b3 88bc e203 68bc
000001a0: 18db b4bc 26a6 7d3d 052c bebd cdb9 0c3b
000001b0: 785c 1b3e dc49 42be 9fe2 cc3b a53e 493e
000001c0: 5047 b4bc dd97 37bd 1e8b 2bbc af63 b13d
000001d0: 4a34 513a 6013 c03d 6a37 103d db3e 0ebe
000001e0: 8a79 3fbe d13f b5bb 4856 31bd d7fb 3b3c
000001f0: ed5f b53c e5f4 f8bd e3c8 d7bd 9dda 54be
00000200: 0c70 c7bd 9b5c b6bd a787 adbd b2fd 24be
00000210: 05f4 8dbc 9ed7 d7bd 0c68 4dbc 527f 36be
00000220: de44 793d 65a3 b23d 7b03 463d db46 b9bd
00000230: 30e5 b9bd 59f1 b2bd 280f 2c3e 1d21 6abd
00000240: 0cae 573e 55a8 e13c 5332 a13c 4916 b5ba
00000250: cdd1 98bd dc2a 483d 6375 08be 5187 363d
00000260: ce83 c2bc 05a5 4ebe a001 473c 8784 0dbd
00000270: a356 88bb 348f eb3d c7a1 d53d f2b7 abbc
00000280: 7621 f73b dcf4 95bd 5daf c1bd 4635 9fbb
00000290: cf1e 543c 093c 9bbd 0fe7 7fbd 5e3a 3dbb
000002a0: 7827 853d 4931 c8bd a5a4 71bd 8534 b53d
000002b0: c716 febd 5582 38bc fa26 e43d 8a1e 183e
000002c0: 82a0 9a3c 4ed5 65bd e97c 89bd dda9 93bd
000002d0: 8044 e73c 0ae0 9fb9 66d6 fd3c 78ce cdbc
000002e0: c292 19be 5e4c 783d dafb 2d3e 8891 76bd
000002f0: 28ed 5f3c dba5 97bd c577 22bd 3251 423c
00000300: 3337 22bd 8fcf 193e 36ac 9dbb 6431 6bbd
00000310: 2fe2 bfbd 8b27 72bd 50d1 a13c d306 2ebc
00000320: 8b52 acbd cba2 183e fac7 debd 737f 3ebe
00000330: d4cf 81bd dd44 cbbc 6664 82b8 d836 8abd
00000340: 4b22 563d ad1f 763d bf35 d2bd f95a f63d
00000350: 083b 6dbd 8220 05be 4a9b f9bd c567 3ebc
00000360: 58a4 82bc 72c7 2cbd a6fd 043d 395d 72bd
00000370: 0588 0c3d 0e6f cf3c be3d 04bc 5d50 96bd
00000380: bcb0 f2bd 9877 b1bb fcc2 c93d d965 f3bd
00000390: 1c22 b73d 4140 9cbd 13f4 213e d8a9 a03d
000003a0: ac0f 3bbd 4c02 183c aa54 923c b22f 0bbe
000003b0: f9eb 983d b3a2 07bd e95e a3bd 4c4c 8cbd
000003c0: e923 cfbc e737 59be 7b4c 06be ecd7 0e3d
000003d0: db9e 22be 003c f2bd e64c d2bc f8b0 0ebd
000003e0: 426b 89bd a63c 843c 7dbe 4bbd a259 fb3d
000003f0: 905b 3abd be72 033c 2234 0c3d e44a 52bd

network_body.linear_encoder.seq_layers.2.bias f4 [256]
0.003685326 0.01854214 -0.091569595 -0.05515346 -0.09528272 0.042179096 0.06059424 -0.028886383
0.057047505 -0.09355877 0.013836178 0.020417355 0.0041028815 0.048851248 0.06527146 -0.0462884
0.064035214 0.041910127 -0.06718516 -0.030649994 0.07524958 -0.06226763 -0.09237137 0.018292263
-0.071413174 0.058121305 0.04195354 -0.061130434 -0.027497184 0.005659628 -0.038212206 0.076023586
-0.06379932 -0.073606566 0.06965741 0.039122697 0.0019246781 -0.10265753 0.042312633 0.035414014
-0.085116975 -0.06040073 0.0643497 -0.07823265 0.012839815 -0.032505978 0.037606474 0.04803828
-0.05414546 0.017109271 -0.065133125 -0.004777941 0.06065478 -0.029476104 -0.040515568 -0.065693
0.037053265 -0.059772402 -0.0805135 0.049361978 -0.06210302 -0.06832169 -0.0050819702 0.037758872
0.02556313 0.07169977 0.0048195696 -0.009280444 0.038018335 0.0391868 0.06256462 -0.000694605
0.012352321 0.020770596 0.0486877 -0.025554787 -0.05473318 0.03528957 0.051698856 0.054378137
-0.009874672 -0.012209598 -0.02225249 -0.088726476 0.008424953 0.045105066 0.041282825 -0.086295076
0.05423974 0.0647427 0.045041986 -0.07651595 0.059016533 0.055100944 0.06239317 -0.06292461
-0.084769726 0.009770863 0.06059075 0.045901917 -0.077588536 0.02727113 -0.013615496 0.03488838
-0.015403766 -0.0564693 0.06990112 0.07123496 0.008684042 0.056598 0.07389018 -0.06665797
-0.055182725 0.015961492 0.0631339 -0.05135558 0.06540312 -0.032399762 0.04567933 0.041283358
-0.043731943 0.07509298 0.04344228 0.05763865 -0.054478332 -0.096705295 0.042726688 0.042679153
-0.023517799 -0.00901738 0.006128188 -0.023290705 0.037755784 0.0827458 0.064223245 -0.038967848
0.04044673 -0.021442883 0.0533892 -0.050896924 0.063046545 0.035628375 0.07136208 0.062028836
0.057376668 0.0114524765 0.073156305 -0.07135081 -0.0042814305 -0.039736144 -0.05229972 -0.012538193
-0.027736908 -0.070383385 0.071731344 -0.019331846 0.018636778 0.048323635 0.08015798 -0.016845025
-0.06993109 0.06421441 -0.004945317 0.04222371 0.019362157 0.07720892 -0.02688689 -0.062740386
0.06743954 -0.0034023803 0.08121608 0.027231688 0.02705564 0.0621268 0.037394907 0.07523875
0.056503933 -0.04571746 -0.06221389 -0.061331123 0.047310695 0.054567277 0.010302322 0.07501821
0.0485295 -0.058564965 0.041944064 -0.08209466 -0.020385263 -0.03351768 -0.11723296 0.06369345
-0.061397552 0.031129451 0.012771197 -0.085047394 -0.042068444 0.0005528628 0.0594719 -0.044562105
-0.032094825 0.049144942 0.06667886 0.045435425 -0.0638445 -0.0051129414 -0.018021677 -0.03660434
-0.012573245 0.05419239 -0.10106069 0.059088353 0.034115445 -0.009320716 -0.00012520934 -0.084503815
0.013576597 -0.02798833 -0.04999175 0.045114707 0.016084393 0.062044583 0.038146142 0.020030087
-0.08338571 -0.027889434 0.004796338 0.05792493 -0.014911433 -0.069539666 0.0417205 -0.08826444
-0.022044213 0.042861346 0.039125863 0.06703076 0.048657544 0.06585864 -0.030075891 -0.048006088
0.044801805 0.013091666 -0.06773874 0.04039728 0.0017394796 -0.047817662 -0.079706386 -0.099110834
-0.01403625 0.011840739 0.07555241 0.05620997 0.09009773 0.037923396 -0.0042368947 0.086622365
00000000: 8385 713b b0e5 973c d788 bbbd 98e8 61bd
00000010: 9623 c3bd fdc3 2c3d aa31 783d 23a3 ecbc
00000020: a5aa 693d be9b bfbd 23b1 623c 4c42 a73c
00000030: 7771 863b 3f18 483d 0bad 853d e898 3dbd
00000040: e524 833d f4a9 2b3d 6098 89bd b215 fbbc
00000050: 741c 9a3d 580c 7fbd 332d bdbd a8d9 953c
00000060: 1241 92bd 9b10 6e3d 7ad7 2b3d e863 7abd
00000070: c641 e1bc 6774 b93b 6784 1cbd 41b2 9b3d
00000080: 38a9 82bd 0abf 96bd 8ba8 8e3d 1f3f 203d
00000090: 7b45 fc3a 1c3e d2bd 0350 2d3d 490e 113d
000000a0: cf51 aebd c266 77bd c7c9 833d 7138 a0bd
000000b0: 165e 523c fd24 05bd 3f09 1a3d cac3 443d
000000c0: a1c7 5dbd be28 8c3c 8464 85bd 4690 9cbb
000000d0: 2671 783d df77 f1bc a7f3 25bd 0d8a 86bd
000000e0: 2ac5 173d e8d3 74bd 43e4 a4bd c92f 4a3d
000000f0: bc5f 7ebd 3eec 8bbd a886 a6bb 0ca9 1a3d
00000100: c569 d13c 54d7 923d 7bed 9d3b 010d 18bc
00000110: 1db9 1b3d 5782 203d e121 803d 2716 36ba
00000120: 6461 4a3c 1927 aa3c c16c 473d 4658 d1bc
00000130: e62f 60bd cc8b 103d 2ec2 533d 9cbb 5e3d
00000140: 60c9 21bc c40a 48bc db4a b6bc 3ab6 b5bd
00000150: d008 0a3c 17c0 383d 2e18 293d 79bb b0bd
00000160: 7d2a 5e3d d297 843d f27d 383d 65b4 9cbd
00000170: 52bb 713d 87b1 613d fb8f 7f3d 9ede 80bd
00000180: c09b adbd f815 203c 022e 783d a603 3c3d
00000190: bde6 9ebd b467 df3c 8813 5fbc 1ee7 0e3d
000001a0: 1460 7cbc 5a4c 67bd 5228 8f3d a2e3 913d
000001b0: 8347 0e3c 4ed3 673d bc53 973d f983 88bd
000001c0: 4807 62bd adc1 823c 594c 813d 3b5a 52bd
000001d0: 12f2 853d 9db5 04bd 401a 3b3d bd18 293d
000001e0: 4420 33bd 59ca 993d 88f0 313d 8116 6c3d
000001f0: ac24 5fbd 6d0d c6bd 2e02 2f3d 56d0 2e3d
00000200: 66a8 c0bc a2bd 13bc f8ce c83b 26cc bebc
00000210: cfa5 1a3d a176 a93d 7a87 833d c09c 1fbd
00000220: 78ab 253d fca8 afbc a2ae 5a3d 4b79 50bd
00000230: 8c1e 813d 0fef 113d 4826 923d f311 7e3d
00000240: cc03 6b3d 2ba3 3b3c f9d2 953d 6020 92bd
00000250: 3e4b 8cbb 5ec2 22bd 3b38 56bd fe6c 4dbc
00000260: 8338 e3bc 2a25 90bd e2e7 923d d25d 9ebc
00000270: 28ac 983c 01ef 453d de29 a43d 94fe 89bc
00000280: 0838 8fbd d882 833d 530c a2bb c5f2 2c3d
00000290: 639d 9e3c b61f 9e3d e541 dcbc 087e 80bd
000002a0: be1d 8a3d 78fa 5ebb 9e54 a63d fd14 df3c
000002b0: caa3 dd3c ac78 7e3d 672b 193d c616 9a3d
000002c0: ab70 673d 3b42 3bbd fed3 7ebd 5836 7bbd
000002d0: dcc8 413d f081 5f3d 12cb 283c 26a3 993d
000002e0: dec6 463d d1e1 6fbd 8acd 2b3d 3f21 a8bd
000002f0: fffe a6bc d649 09bd d617 f0bd b671 823d
00000300: 007c 7bbd 3103 ff3c 483e 513c 542d aebd
00000310: f64f 2cbd ffed 103a cf98 733d c186 36bd
00000320: dd75 03bd 354c 493d ed8e 883d 7f1a 3a3d
00000330: e8c0 82bd 768a a7bb 32a2 93bc 6fee 15bd
00000340: 0300 4ebc d7f8 5d3d e8f8 cebd a106 723d
00000350: a3bc 0b3d ebb5 18bc a04a 03b9 5610 adbd
00000360: 6070 5e3c c847 e5bc 26c4 4cbd 33ca 383d
00000370: 6bc3 833c 7622 7e3d 213f 1c3d 2316 a43c
00000380: 21c6 aabd 6278 e4bc 992a 9d3b b142 6d3d
00000390: 154f 74bc d06a 8ebd 1de3 2a3d fdc3 b4bd
000003a0: 1196 b4bc 618f 2f3d 7142 203d 6c47 893d
000003b0: 224d 473d e5e0 863d b761 f6bc 08a2 44bd
000003c0: 1982 373d 6d7e 563c 9cba 8abd 9e77 253d
000003d0: 40ff e33a 74dc 43bd 1a3d a3bd 9ffa cabd
000003e0: 4df8 65bc a9ff 413c 39bb 9a3d 6d3c 663d
000003f0: 2985 b83d 9055 1b3d a6d5 8abb 1167 b13d

action_model._continuous_distribution.log_sigma f4 [1, 3]
-0.5143531 -0.32942435 0.040903628
00000000: a5ac 03bf 4faa a8be 908a 273d

action_model._continuous_distribution.mu.weight f4 [3, 256]
0.025730222 -0.0006383387 -0.054569867 -0.059616577 -0.06294235 0.026086416 0.06565209 -0.016367892
0.04482129 -0.07815672 0.016722118 0.025985843 -0.021191593 0.029364165 0.047014844 -0.08290153
0.054108348 0.043900125 -0.085039906 -0.057408985 0.055733792 -0.06025744 -0.10095649 0.019099709
-0.08569673 0.055109277 0.03335815 -0.028737647 -0.035728723 0.0021708403 0.012760761 0.06041699
-0.045913074 -0.101751536 0.054840513 0.031370133 -0.018134667 -0.07755876 0.027844379 0.042287774
-0.080072306 -0.07391938 0.03708891 -0.06778623 -0.0173262 -0.024268055 0.009336471 0.053258207
-0.09518845 0.021974837 -0.08850757 -0.00051544106 0.044724442 -0.016244423 -0.08143599 -0.067319065
0.033522513 -0.07698201 -0.11064903 0.02867373 -0.059870005 -0.06296479 0.0038805401 0.02027836
0.021931732 0.0789008 0.0046432135 -0.0006611114 0.013104908 0.022828529 0.038567897 -0.0076757693
-0.013498789 0.057150114 0.03902991 -0.010973852 -0.08513455 0.024935426 0.03986372 0.0470176
-0.015907729 -0.04966305 -0.020251831 -0.08240272 0.011149818 0.04758871 0.036144372 -0.06587267
0.04365168 0.059643492 0.0024347978 -0.048890486 0.07361258 0.041718815 0.039728858 -0.037366316
-0.10176111 0.016427232 0.050238766 0.00593052 -0.03807169 0.035629537 0.0007716233 0.06409938
0.0016712372 -0.064213715 0.064355604 0.07173253 0.015177504 0.05401719 0.06214256 -0.03831656
-0.04292042 0.008953545 0.041589238 -0.11148451 0.036083516 -0.021565875 0.038416374 0.08548904
-0.07246279 0.062246867 0.021626487 0.043749876 -0.017403606 -0.06646778 0.054430943 0.03224674
-0.007950897 0.009832456 0.0026759782 0.004877633 0.062340643 0.072504595 0.049419455 -0.1206346
0.021904929 -0.009244132 0.047741454 -0.06757464 0.06049945 0.034635775 0.04957273 0.05357531
0.044081125 0.00563168 0.052520383 -0.0900679 0.017247656 -0.06256363 -0.09689087 -0.030038701
-0.0030373596 -0.13063198 0.05360921 -0.018007824 0.02407359 0.033151418 0.10898106 -0.009558531
-0.029543549 0.05629063 0.0055243135 0.037085004 0.028425967 0.06396579 -0.027138116 -0.08217926
0.052817903 0.0038973852 0.072969295 0.024345847 0.043681968 0.049117215 0.03658749 0.054735977
0.07214093 -0.10958433 -0.057576608 -0.08002538 0.025896344 0.03839308 0.010400392 0.07970478
0.034539785 -0.043508463 0.040680256 -0.10433537 -0.00700085 -0.0004151608 -0.08053843 0.06247818
-0.096791245 0.03607314 0.0108197825 -0.051870316 -0.041162454 -0.004830381 0.04335268 -0.03776777
-0.045382 0.038811024 0.06486171 0.030042987 -0.09761688 -0.005434874 -0.012702869 -0.011876083
0.007510773 0.05960744 -0.071460046 0.03413569 0.018330872 -0.028344736 0.01803399 -0.08216835
0.036157124 -0.009170585 -0.124085695 0.021166086 0.015209419 0.04935439 0.03683435 0.03200224
-0.028727766 0.0066810213 0.003275262 0.04713327 -0.025074475 -0.087979935 0.035874337 -0.050364774
-0.022431348 0.025956169 0.04225725 0.06648852 0.05245728 0.082520664 -0.05676197 -0.039074674
0.039317448 -0.0033497275 -0.078622386 0.013999536 0.00077871105 -0.021906298 -0.07372448 -0.06262378
-0.021768881 0.0066695972 0.06089846 0.05908577 0.060669806 0.020214837 0.0031434433 0.0734176
00000000: 30c8 d23c 2f56 27ba a784 5fbd 8330 74bd
00000010: ebe7 80bd 2eb3 d53c 9a74 863d f515 86bc
00000020: 8796 373d a110 a0bd d3fc 883c 43e0 d43c
00000030: fe99 adbc 1e8d f03c a392 403d 47c8 a9bd
00000040: b7a0 5d3d 9ed0 333d 6729 aebd af25 6bbd
00000050: 1e49 643d 81d0 76bd 47c2 cebd fe76 9c3c
00000060: c481 afbd 44ba 613d 8ea2 083d 376b ebbc
00000070: 4858 12bd a844 0e3b 8312 513c ce77 773d
00000080: 590f 3cbd 1c63 d0bd 72a0 603d f87d 003d
00000090: 278f 94bc 21d7 9ebd e519 e43c f235 2d3d
000000a0: f3fc a3bd 0b63 97bd 8aea 173d 82d3 8abd
000000b0: adef 8dbc cdcd c6bc fff7 183c 4725 5a3d
000000c0: 29f2 c2bd 9304 b43c 7543 b5bd aa1e 07ba
000000d0: fa30 373d 0613 85bc eac7 a6bd 94de 89bd
000000e0: e74e 093d bea8 9dbd f59b e2bd 2ce5 ea3c
000000f0: 403a 75bd aff3 80bd a950 7e3b ce1e a63c
00000100: 2daa b33c be96 a13d 1926 983b 6f4e 2dba
00000110: f8b5 563c e502 bb3c 5ff9 1d3d 0585 fbbb
00000120: 062a 5dbc 3d16 6a3d d4dd 1f3d accb 33bc
00000130: 065b aebd 6145 cc3c 2448 233d 8795 403d
00000140: ed50 82bc 7b6b 4bbd 2be7 a5bc c2c2 a8bd
00000150: baad 363c 61ec 423d 1f0c 143d 40e8 86bd
00000160: 1bcc 323d bc4c 743d 2191 1f3b 6441 48bd
00000170: 31c2 963d 59e1 2a3d baba 223d 6c0d 19bd
00000180: 2168 d0bd 6792 863c 2ac7 4d3d cf54 c23b
00000190: 0ff1 1bbd 47f0 113d c346 4a3a 8946 833d
000001a0: 6a0d db3a 7b82 83bd dfcc 833d 81e8 923d
000001b0: 11ab 783c 2141 5d3d 3289 7e3d d3f1 1cbd
000001c0: 53cd 2fbd e4b1 123c 7a59 2a3d fe51 e4bd
000001d0: 4fcc 133d ebaa b0bc 7d5a 1d3d e114 af3d
000001e0: 5f67 94bd 92f6 7e3d 082a b13c 1233 333d
000001f0: 0292 8ebc 4220 88bd fbf2 5e3d 2815 043d
00000200: 7b44 02bc 4f18 213c 775f 2f3b 8dd4 9f3b
00000210: e758 7f3d 4a7d 943d 0e6c 4a3d 460f f7bd
00000220: f771 b33c b374 17bc 8b8c 433d 9364 8abd
00000230: 45ce 773d 3ede 0d3d c60c 4b3d c971 5b3d
00000240: 698e 343d f589 b83b 9d1f 573d 8575 b8bd
00000250: f54a 8d3c 5c21 80bd b86e c6bd b913 f6bc
00000260: 700e 47bb 64c4 05be 5595 5b3d 2585 93bc
00000270: fa35 c53c c8c9 073d 7631 df3d 639b 1cbc
00000280: 5005 f2bc 0191 663d 4d05 b53b 72e6 173d
00000290: 93dd e83c 7f00 833d c150 debc 9a4d a8bd
000002a0: 9657 583d 466b 7f3b ed70 953d f170 c73c
000002b0: ddeb 323d 222f 493d c4dc 153d d532 603d
000002c0: a0be 933d c06d e0bd 73d5 6bbd 59e4 a3bd
000002d0: 9224 d43c 1042 1d3d 6866 2a3c 423c a33d
000002e0: 9779 0d3d ee35 32bd 57a0 263d c8ad d5bd
000002f0: 6367 e5bb f0a9 d9b9 55f1 a4bd 1fe9 7f3d
00000300: 7d3a c6bd 6ec1 133d 7545 313c f875 54bd
00000310: f699 28bd 2c48 9ebb 9492 313d 61b2 1abd
00000320: 7ae2 39bd 4ff8 1e3d 37d6 843d b61c f63c
00000330: 5ceb c7bd 0717 b2bb b21f 50bc e793 42bc
00000340: ee1c f63b ee26 743d a559 92bd ded1 0b3d
00000350: a02a 963c 3833 e8bc 05bc 933c e147 a8bd
00000360: 7e19 143d 3940 16bc a420 febd 8064 ad3c
00000370: ed30 793c d427 4a3d 9edf 163d c814 033d
00000380: 7e56 ebbc 78ec da3b c7a5 563b d10e 413d
00000390: fc68 cdbc d32e b4bd f8f0 123d 4b4b 4ebd
000003a0: f2c1 b7bc 08a2 d43c f015 2d3d 222b 883d
000003b0: 72dd 563d 9800 a93d 3d7f 68bd c40c 20bd
000003c0: 550b 213d 1a87 5bbb c604 a1bd 4f5e 653c
000003d0: 6a22 4c3a d674 b3bc dcfc 96bd e540 80bd
000003e0: a754 b2bc a38c da3b aa70 793d ec03 723d
000003f0: e780 783d 9699 a53c 3a02 4e3b f75b 963d

action_model._continuous_distribution.mu.bias f4 [3]
0.08324667 -0.0075631025 -0.015820736
00000000: 3b7d aa3d e7d3 f7bb 7d9a 81bc

64 f4 [28]
0.3622835 0.0015246158 0.36228135 0.25833616 0.24563608 0.0007821127 0.24563503 0.24405709
0.15994957 0.000605822 0.15994841 0.21367136 0.093142204 0.00085676153 0.09313835 0.10058518
0.116588905 0.00034977152 0.11658832 0.15342028 0.07760501 0.001049314 0.07759803 0.086409055
0.089905046 0.00034977152 0.08990424 0.11022809
00000000: 397d b93e 9ed5 c73a f17c b93e a344 843e
00000010: 0688 7b3e b206 4d3a c087 7b3e 1aea 793e
00000020: d2c9 233e 07d0 1e3a 84c9 233e aacc 5a3e
00000030: 57c1 be3d 4b98 603a 52bf be3d 9aff cd3d
00000040: 2ac6 ee3d 8a61 b739 dbc5 ee3d 351a 1d3e
00000050: 60ef 9e3d 2389 893a b7eb 9e3d 3bf7 b03d
00000060: 2320 b83d 8a61 b739 b71f b83d 44bf e13d

67 f4 [10]
0.00034977152 0.59390664 0.00034977152 0.41642588 4.467841 10.387248 0.71205044 0.08777461
0.68708724 0.25233993
00000000: 8a61 b739 440a 183f 8a61 b739 c635 d53e
00000010: 8ef8 8e40 2b32 2641 f048 363f 2dc3 b33d
00000020: f3e4 2f3f b332 813e
