Assets/NeuralNetworks/NN/ReinforcementLearning/KartCameraBehavior.onnx (onnx, 644325 bytes, 15 tensors)

network_body.observation_encoder.processors.0.conv_layers.0.weight f4 [16, 1, 8, 8]
0	0x3def3b9e	0.11681293
1	0x3c9855f4	0.018595673
2	0x3d8c5e82	0.068539634
3	0x3e11dba0	0.14243937
4	0x3d223cd7	0.039608803
5	0x3d8fc24c	0.07019481
6	0x3d65d610	0.05611235
7	0xbd79dbbb	-0.061000567
8	0x3cbf8f9a	0.023383904
9	0xbd20f10b	-0.039292376
10	0x3d6e0fef	0.058120664
11	0xbd7945d3	-0.060857605
12	0xbd380a39	-0.044931624
13	0xbd14c4f1	-0.03632063
14	0x3ddf8ccc	0.10915527
15	0x3dcf923a	0.101353124
16	0x3d734ae9	0.05939761
17	0x3e06f677	0.13179956
18	0x3df64329	0.120245285
19	0x3c806491	0.015672954
20	0x3dc7a1c0	0.09747648
21	0x3c89fe20	0.016844809
22	0x3c2cc6ac	0.010545414
23	0x3de6f904	0.11277965
24	0x3bfd09ea	0.007722129
25	0x3d8c65e9	0.06855375
26	0x3d4086a8	0.04700342
27	0x3d4abe70	0.04949802
28	0xbd55cf9a	-0.052199937
29	0x3dc9a4c9	0.098458834
30	0x3d6f277f	0.058387276
31	0xbd1e3a28	-0.03862968
32	0xbdab315c	-0.08359024
33	0xbd54a729	-0.05191723
34	0x3d09751f	0.03355896
35	0xbd117525	-0.03551211
36	0xbd875a38	-0.06609005
37	0xbd8cd69d	-0.06876872
38	0x3dba2e56	0.09090869
39	0x3c195249	0.009357997
40	0xbde71b8d	-0.11284552
41	0xbd9ec519	-0.07752437
42	0xbdbd5133	-0.09244003
43	0xbddf82c4	-0.109136134
44	0x3d8f8de0	0.070094824
45	0x3d997223	0.07492473
46	0x3d09b79c	0.03362237
47	0x3c808ef5	0.015693167
48	0xbd95c180	-0.07312298
49	0xbe00a375	-0.12562354
50	0xbe0a62e5	-0.13514288
51	0xbd56fe1e	-0.05248844
52	0xbd49f18a	-0.049302615
53	0xbe3333ac	-0.1750018
54	0xbe27d757	-0.1639074
55	0xbe163aaa	-0.14670816
56	0xbda0f6c6	-0.07859568
57	0xbe02e6b3	-0.12783317
58	0x3c19028b	0.009338985
59	0xbd1a7247	-0.03770664
60	0xbd8faa38	-0.070148885
61	0xbce14166	-0.027497005
62	0xbdd7d5f7	-0.105388574
63	0x3d9ff62d	0.07810626
64	0xbd9e48cb	-0.07728728
65	0x3d91cee1	0.07119537
66	0x3e06dbff	0.1316986
67	0x3df01c1a	0.1172411
68	0x3da6724f	0.081272714
69	0xbdb255d4	-0.08707777
70	0x3d5f9f5c	0.054595336
71	0x3e0e876a	0.13918844
72	0x3c9ed471	0.01938841
73	0xbda19fbe	-0.078917965
74	0xbdc0a23f	-0.09405946
75	0x3dd17e75	0.10229198
76	0x3e058c59	0.1304182
77	0x3bee427a	0.007271108
78	0xbd803220	-0.062595606
79	0xbd2937d8	-0.041313022
80	0x3e057fce	0.13037035
81	0x3c05dce1	0.008170337
82	0x3d15fede	0.036620013
83	0xbddcae79	-0.107754655
84	0xbd7a1b06	-0.061060928
85	0x3c998eb9	0.018744813
86	0x3c4d03ee	0.012513144
87	0xbd2f426a	-0.042787947
88	0xbda84f5c	-0.082182616
89	0xbd955d63	-0.07293203
90	0xbd6993c9	-0.057025705
91	0xbd666938	-0.05625269
92	0xbd2c92a6	-0.042132042
93	0xbde3a922	-0.11116244
94	0x3e047063	0.12933497
95	0xbd5733e4	-0.05253972
96	0xbdac5564	-0.084147245
97	0xbdb3a8e9	-0.087724514
98	0xbc36f09e	-0.011165766
99	0x3d7c7c67	0.061642077
100	0xbd80f8ea	-0.062974766
101	0xbd19bd2f	-0.037533935
102	0xbd95c16a	-0.073122814
103	0xbda84ff7	-0.08218377
104	0x3daaddaf	0.08343064
105	0x3ddaec87	0.10689645
106	0x3d94a518	0.07258052
107	0xbdad3aef	-0.08458506
108	0xbdb02d4b	-0.08602389
109	0xbd663706	-0.05620482
110	0xba9a1ca8	-0.0011757808
111	0x3cb9fd44	0.022703774
112	0x3ddcc2a8	0.10779315
113	0x3bc72ac8	0.006078098
114	0xbcf00a13	-0.029301679
115	0x3a90837c	0.0011025514
116	0x3d9d416d	0.076784946
117	0x3d6d8981	0.057992462
118	0xbdc98406	-0.098396346
119	0x3dc419da	0.09575243
120	0xbced7c0b	-0.028989812
121	0x3e082bff	0.13298033
122	0xbd11eaef	-0.03562444
123	0x3c0612b6	0.008183172
124	0x3d98000a	0.074218825
125	0x3d2f0eda	0.042738773
126	0xbc98b2e1	-0.018639984
127	0x3daf752b	0.0856727
128	0xbdced74f	-0.100996606
129	0xbd33ba19	-0.04387865
130	0xbc0db8f2	-0.008650051
131	0x3cc8b579	0.024500595
132	0xbcc8df6d	-0.0245206
133	0x3ca05ea2	0.019576374
134	0x3ded13d0	0.115760446
135	0xbb99f882	-0.004698814
136	0x3e030aea	0.12797132
137	0x3cea176b	0.02857562
138	0xbc48ed04	-0.01226354
139	0xbd35aa93	-0.044352125
140	0x3cac9929	0.021069126
141	0x3e238ade	0.15970942
142	0x3e256240	0.1615076
143	0xbd4edf4b	-0.050505918
144	0xbd50a972	-0.050942846
145	0xbd92cde9	-0.071681805
146	0x3d208c6c	0.039196417
147	0xbc706517	-0.014672539
148	0x3d8f675c	0.07002136
149	0xbc42ea00	-0.01189661
150	0x3ddca0ca	0.107728556
151	0x3e1f33f6	0.15547165
152	0xbdd1d884	-0.10246375
153	0xbd9160b4	-0.07098523
154	0xbdaad932	-0.08342208
155	0x3e11347b	0.14180176
156	0x3cad71c4	0.021172412
157	0xbdd0259d	-0.10163424
158	0x3d7cb083	0.061691772
159	0xbd3fc6b6	-0.046820365
160	0xbd01a624	-0.031652585
161	0x3ad2e4ac	0.0016089878
162	0x3c7d39a2	0.015455635
163	0x3da41101	0.08011056
164	0xbda7f2d1	-0.082006104
165	0xbd83a162	-0.06427266
166	0xbc8cdbe6	-0.0171947
167	0xbd676d88	-0.05650094
168	0xbd64e81a	-0.05588541
169	0xbb026934	-0.0019899132
170	0xbd84d727	-0.064863496
171	0x3c1feba1	0.009760768
172	0xbd7012dc	-0.058611736
173	0x3d8fa2e4	0.07013491
174	0x3dacef1e	0.084440455
175	0x3aafeae9	0.0013421449
176	0xbd9064b0	-0.070504546
177	0xbde7c1db	-0.11316272
178	0x3daa1302	0.08304407
179	0x3deebf11	0.11657537
180	0xbca6fb89	-0.020383613
181	0xbcf4e266	-0.029893111
182	0x3d3edd2d	0.04659765
183	0xbdc3f81b	-0.09568807
184	0xbddccf75	-0.10781757
185	0xbd2697f8	-0.040672272
186	0x3bd1bf3e	0.0064009717
187	0x3df79fe8	0.120910466
188	0x3cb783a7	0.022401644
189	0xbdbd21d2	-0.09234966
190	0xbdeac108	-0.11462599
191	0x3c7569b0	0.014978811
192	0x3de1b827	0.110214524
193	0x3c5f669d	0.013635305
194	0xbdcbaaec	-0.0994471
195	0xbda82d92	-0.08211817
196	0xbd9ab414	-0.075538784
197	0xbbdef4cc	-0.0068040844
198	0xbde3a78d	-0.11115942
199	0x3d927a5c	0.071522444
200	0xbd95b607	-0.073101096
201	0x3dbf4bb5	0.09340612
202	0xbcdeb333	-0.027185058
203	0x3c9f8de5	0.01947684
204	0x3c0f2139	0.008735948
205	0x3dd19641	0.10233737
206	0xbdb54af6	-0.08852188
207	0xbc568402	-0.013092997
208	0xbdf2653d	-0.11835716
209	0xbd37d5ea	-0.04488174
210	0xbd46f4fa	-0.04857347
211	0x3d99790e	0.074937925
212	0xbda7bfe8	-0.081909
213	0xbdc48208	-0.09595114
214	0xbd12b1c5	-0.035814065
215	0x3d8e9e04	0.06963733
216	0xbdb74287	-0.08948236
217	0xbd73f4ab	-0.059559505
218	0xbd3e8fc3	-0.04652382
219	0xbd203f37	-0.039122786
220	0xbd014551	-0.031560246
221	0xbdc96d68	-0.09835321
222	0x3de4d772	0.111739054
223	0x3e06022d	0.13086767
224	0x3cdb8655	0.026797453
225	0x3dca0115	0.09863488
226	0x3d4bdc9c	0.049770936
227	0x3dc1608e	0.094422445
228	0x3d78aabb	0.060709696
229	0x3d8288eb	0.06373771
230	0x3d8cec40	0.068809986
231	0xbd8486f9	-0.064710565
232	0xbb8c5dbd	-0.0042836354
233	0x3d372c5f	0.04472005
234	0xbcd88bdd	-0.02643388
235	0xbc9e9fda	-0.019363333
236	0x3be63432	0.007025265
237	0xbcaae61d	-0.02086168
238	0xbde0be22	-0.10973765
239	0x3d56f061	0.052475337
240	0x3d85fed9	0.06542749
241	0x3e107b7d	0.14109607
242	0x3da90b6a	0.0825413
243	0x3d8785da	0.06617327
244	0x3d2418b8	0.040062636
245	0xbd0d7f4d	-0.03454523
246	0xbb15b99c	-0.0022846228
247	0x3d64006e	0.055664472
248	0x3dc09f7a	0.09405418
249	0x3d4556f3	0.048178624
250	0x3d59d6e6	0.05318346
251	0x3cef1fef	0.029190032
252	0xbcd9a05d	-0.026565725
253	0x3d948195	0.07251278
254	0xbde1638b	-0.110053144
255	0xbdad251c	-0.08454344

network_body.observation_encoder.processors.0.conv_layers.0.bias f4 [16]
0	0x3d06bae0	0.03289306
1	0xbd87bc37	-0.06627696
2	0xbcfc4777	-0.030795796
3	0x3da59b26	0.08086233
4	0x3c8f8f0d	0.017524267
5	0xbccb1d58	-0.024794266
6	0x3d393b30	0.04522246
7	0xbd1f6109	-0.0389109
8	0xbd48a80d	-0.04898839
9	0xbe002f20	-0.12517977
10	0xbd975a08	-0.07390219
11	0x3dc3be41	0.095577724
12	0xbe01a536	-0.12660679
13	0x3dc898cd	0.097947694
14	0x3d69ce37	0.057081427
15	0xbdc1a09f	-0.09454464

network_body.observation_encoder.processors.0.conv_layers.2.weight f4 [32, 16, 4, 4]
0	0x3d969b89	0.07353885
1	0xbc04a956	-0.008097013
2	0x3cedf7c9	0.029048817
3	0x3c43ea31	0.011957691
4	0xbdca1c3e	-0.09868668
5	0x3bdcb03f	0.0067348774
6	0xbda8fee3	-0.08251741
7	0xbcc10486	-0.023561727
8	0xbd9c48fd	-0.07631109
9	0xbd2c7609	-0.042104755
10	0xbd062ae2	-0.03275574
11	0x3d19eb25	0.037577767
12	0x3b46f119	0.0030356108
13	0x3c91a58d	0.017779136
14	0x3dbe77f3	0.09300222
15	0x3d80b9eb	0.06285461
16	0x3d8526a9	0.065015145
17	0x3d065d90	0.032804072
18	0xbd6e1142	-0.058121927
19	0xbc9534a0	-0.01821357
20	0xbd1f8047	-0.038940694
21	0x3d8a431e	0.06751083
22	0xbd32fbf1	-0.0436973
23	0x3c44084a	0.011964867
24	0xbcbf9e22	-0.023390833
25	0x3cb4218e	0.021988656
26	0xbb5c3dd1	-0.0033606181
27	0x3b77053e	0.0037692334
28	0xbd9d95b0	-0.07694566
29	0x3d9f5798	0.07780379
30	0x3c9a0918	0.018803164
31	0xbd872a5b	-0.065998755
32	0x3d8acd00	0.06777382
33	0x3daa5b75	0.08318225
34	0xbd518e15	-0.05116089
35	0xbc8c63ec	-0.01713749
36	0xbd2f2073	-0.042755555
37	0xbd94a87c	-0.07258698
38	0x3ca61d0a	0.020277519
39	0x3c598385	0.013275986
40	0xbcd985d8	-0.02655308
41	0x3d263ebd	0.040587176
42	0xbd8cb733	-0.0687088
43	0x3af8fb7a	0.0018995844
44	0xbd1f32b0	-0.0388667
45	0x3cf7cdbf	0.030249475
46	0xbd623c1f	-0.055233117
47	0xbd89e4aa	-0.06733067
48	0xbd0cf412	-0.03441245
49	0x3cb0a282	0.021561865
50	0xbc358ab0	-0.011080429
51	0xbca4cb97	-0.02011661
52	0xbca07af8	-0.019589886
53	0xbce7c28b	-0.028291008
54	0xbd93ecc3	-0.07222893
55	0xbbc58c08	-0.006028656
56	0x3db4d84b	0.08830317
57	0xbcd35c4b	-0.025800845
58	0xbd46bcf9	-0.048520062
59	0xbd07307b	-0.03300522
60	0xbd67b602	-0.05657006
61	0xbdfce186	-0.12347703
62	0xbdd6a2f9	-0.10480303
63	0x3c219455	0.009862025
64	0xbca8bf73	-0.020599103
65	0xbc20ee14	-0.009822387
66	0x3d84b4d8	0.06479806
67	0xbc807c7c	-0.015684359
68	0xbca86775	-0.020557145
69	0xbbeea94c	-0.0072833654
70	0x3d2b2c97	0.04179057
71	0xbcdf1c75	-0.027235249
72	0x3b753403	0.0037415035
73	0x3d2050e2	0.039139636
74	0x3d85ed74	0.06539431
75	0x3d7affb2	0.061279006
76	0xbbb222c9	-0.0054362756
77	0x3da03a67	0.07823639
78	0x3d8cd133	0.06875839
79	0x3d8cb83a	0.06871076
80	0x3c4d9fd7	0.012550316
81	0xbba8b840	-0.0051489174
82	0xbd2328b5	-0.039833743
83	0xbcb71d32	-0.022352789
84	0xba9fe976	-0.0012200314
85	0x3d0de8a0	0.034645677
86	0xbd3dbaeb	-0.046320837
87	0xbd88d61e	-0.066814646
88	0x3ce25daa	0.027632553
89	0x3d40a774	0.047034696
90	0xbd1c3994	-0.03814085
91	0xbb45b658	-0.00301685
92	0xbc8308d8	-0.015995428
93	0xbcf00e4d	-0.029303694
94	0xbceb31bc	-0.028710239
95	0xbd821ca6	-0.063531205
96	0xbc3ae492	-0.0114070345
97	0xbd7eb950	-0.062188447
98	0xbd018656	-0.031622253
99	0xbd6441f8	-0.055726975
100	0xbd848dac	-0.06472334
101	0x3d0c8d33	0.034314346
102	0xbbed10b7	-0.0072346586
103	0xbcbeeaca	-0.023305316
104	0x3ae633b8	0.0017563021
105	0x3c367add	0.011137691
106	0xba11f3f7	-0.00055676646
107	0x3d0a099f	0.03370058
108	0x3d4449e2	0.047922023
109	0x3d8ae90e	0.06782733
110	0x3cc15315	0.023599187
111	0x3d7cb8ca	0.061699666
112	0x3dd2be4a	0.10290201
113	0x3c9be8ab	0.019031843
114	0x3c68d8e4	0.014211867
115	0x3cb7e84a	0.022449631
116	0x3d898649	0.06715066
117	0xbc79dfe7	-0.015251136
118	0xbda9a1ae	-0.08282791
119	0xbcdd8fb6	-0.027046066
120	0xbc3d2c69	-0.011546233
121	0x3d68e685	0.056860466
122	0xbd44394a	-0.047906198
123	0xbc0ff745	-0.008786981
124	0x3cfbeb3e	0.03075182
125	0x3da65d74	0.081232935
126	0x3d424fad	0.047439266
127	0x3ccc7789	0.024959343
128	0x3c929853	0.0178949
129	0xbd6dee63	-0.05808867
130	0xbd080bc9	-0.033214364
131	0xbc81f1ff	-0.015862463
132	0xbd24b56d	-0.040212084
133	0xb908aaf3	-0.00013033654
134	0xbd18bc99	-0.037289236
135	0x3d9037ec	0.07041916
136	0xbd433d59	-0.047665928
137	0x3c9328c2	0.01796377
138	0x3d74b8eb	0.059746664
139	0x3d9a8e60	0.07546687
140	0x3d7c2a31	0.061563674
141	0x3da18665	0.07886962
142	0x3cab5f99	0.020919608
143	0xbca2205f	-0.019790826
144	0x3d2a8b44	0.04163672
145	0x3d8ab5e6	0.067729756
146	0xbd41d90f	-0.047326144
147	0x3cd64ea9	0.026160555
148	0x3d3ffafa	0.04687021
149	0x3c84567f	0.016154526
150	0xbc96596e	-0.01835319
151	0x3d2d33c3	0.042285692
152	0xbc46fe04	-0.012145523
153	0xbcbdf42b	-0.023187717
154	0xbb7b94d9	-0.003838828
155	0xbbe67eb1	-0.0070341458
156	0xbd362ac6	-0.044474386
157	0x3d330fba	0.04371617
158	0x3b9d5ccc	0.004802322
159	0xbd5b2888	-0.05350545
160	0x3d395930	0.04525107
161	0x3c9b945a	0.018991638
162	0x3d0360f5	0.032074887
163	0xbda0c0a7	-0.078492455
164	0x3ae82de7	0.0017713875
165	0x3cc916af	0.02454695
166	0x3cc18502	0.023622993
167	0xbd392863	-0.04520453
168	0xbcab5260	-0.020913303
169	0x3d039508	0.03212455
170	0xbba2ea96	-0.0049718125
171	0xbd820648	-0.06348854
172	0xbd1a1249	-0.037615094
173	0x3c564267	0.013077355
174	0xbd0e7db2	-0.03478784
175	0xbcd3b581	-0.025843384
176	0xbd023422	-0.031788
177	0x3d83486e	0.06410299
178	0x3cb8f374	0.022577025
179	0xbd57b319	-0.052661035
180	0xbb4f96df	-0.003167562
181	0x3d435ead	0.04769771
182	0xbd0d1e5f	-0.034452792
183	0xbc804b32	-0.015660856
184	0x3d8a1ac1	0.06743384
185	0xbc9b4921	-0.018955769
186	0x3d440ba5	0.047862668
187	0x3d03e76b	0.03220312
188	0xbd47790d	-0.048699427
189	0xbd2eee50	-0.04270774
190	0x3cd24968	0.025669768
191	0xbd3e1224	-0.04640402
192	0x3c8d18b9	0.017223703
193	0xbd2d6abc	-0.042338118
194	0x3d4f2f81	0.050582413
195	0x3b58a793	0.0033058866
196	0x3d05615b	0.03256355
197	0x3be9bb7d	0.007132946
198	0x3b71daea	0.0036904165
199	0x3c6d624e	0.01448877
200	0x3d5b5b51	0.053553883
201	0x3c8d6cfd	0.017263884
202	0x3cc98e30	0.024603933
203	0x3d51c365	0.051211733
204	0x3b5d1e8c	0.0033740131
205	0x3d94186b	0.0723122
206	0x3d6dcb5c	0.058055267
207	0xbd8002e9	-0.06250555
208	0xbd71762a	-0.05895058
209	0x3d1024d1	0.03519136
210	0xbc3f24b1	-0.011666463
211	0xbd31be85	-0.043394584
212	0x3cba64f0	0.022753209
213	0x3d8c2e32	0.068447486
214	0x3d8cb762	0.06870915
215	0xbd1c1be7	-0.038112547
216	0x3d659864	0.056053534
217	0x3d43ffc9	0.047851358
218	0xbc734835	-0.0148487585
219	0x3c9d2ee8	0.019187406
220	0x3d50942e	0.050922565
221	0xbd90866a	-0.070568874
222	0x3b042270	0.0020162128
223	0x3d7e9476	0.062153302
224	0xb9cfeebb	-0.00039659985
225	0xbc9467e3	-0.018115943
226	0xbbfc2619	-0.0076949713
227	0xbd53b4c9	-0.051686082
228	0xbd4da3c1	-0.050204996
229	0xbc0c71a5	-0.008572017
230	0xbce5ea92	-0.028065953
231	0x3cc624de	0.024187502
232	0xbd64f61d	-0.055898774
233	0x3d0cc149	0.03436402
234	0x3d6e611c	0.05819808
235	0xbc1ae917	-0.009454987
236	0x3d585632	0.052816577
237	0xbc54c32a	-0.012985984
238	0x3d969a25	0.073536195
239	0xb91b5cae	-0.00014816478
240	0xbd81b173	-0.06332674
241	0xbda8048f	-0.082039945
242	0x3c9edf40	0.019393563
243	0x3c9fb660	0.019496143
244	0x3d7f02ec	0.062258646
245	0xbcb844b1	-0.022493692
246	0x3d18d7fd	0.037315357
247	0x3c7b38cd	0.015333367
248	0x3d4c086f	0.04981273
249	0x3cd4ac48	0.025961056
250	0xbd6d47bc	-0.05792974
251	0xbc8d0e60	-0.017218769
252	0x3c9e3609	0.019312875
253	0x3c448ec5	0.0119969295
254	0xbd3d32d6	-0.04619106
255	0xbc71dcf5	-0.014762153

network_body.observation_encoder.processors.0.conv_layers.2.bias f4 [32]
0	0xbd6953ee	-0.056964807
1	0xbc6ad4f4	-0.014332999
2	0xbd655e75	-0.055998284
3	0x3d5474b4	0.05186911
4	0xbd06b075	-0.032883126
5	0xbd217eda	-0.039427616
6	0xbbefd501	-0.007319093
7	0xbcc8433f	-0.024446128
8	0x3d86a9be	0.065753445
9	0x3d84ada1	0.064784296
10	0xbd06b157	-0.03288397
11	0x3c6f8b37	0.014620594
12	0x3d1362e8	0.035982996
13	0xbdad53cf	-0.08463251
14	0xbcbdde67	-0.023177339
15	0xbcfc02c3	-0.030763036
16	0xbc51ba56	-0.012800774
17	0xbcb1e8b1	-0.021717401
18	0x3d8a6280	0.06757069
19	0xbbb0f08a	-0.0053997682
20	0xbc03d5de	-0.008046595
21	0x3cff0553	0.031130468
22	0x3bb39f5d	0.005481644
23	0x3d5fa172	0.054597326
24	0xbbbb8b3c	-0.005723385
25	0xbc51a18b	-0.0127948625
26	0x3d042ec0	0.032271147
27	0xbcfb59d0	-0.030682474
28	0xbca84fb3	-0.020545816
29	0x3d057d98	0.03259048
30	0xbd86240e	-0.06549846
31	0x3d6b1091	0.057388846

network_body.observation_encoder.processors.0.dense.0.weight f4 [256, 64]
0	0xbd622790	-0.05521351
1	0xbe2d1d2e	-0.16905662
2	0x3d86af47	0.065764
3	0x3ddd6516	0.10810296
4	0xbc1fac65	-0.009745692
5	0xbcbb838a	-0.022889871
6	0x3c7677ab	0.0150431795
7	0xbe88fe95	-0.2675673
8	0xbdf469c4	-0.11934236
9	0x3e34ccf5	0.1765631
10	0x3dfe3c84	0.12413886
11	0xbdba88ef	-0.09108149
12	0xbd815097	-0.063141994
13	0x3c6704a6	0.014100229
14	0xbebe0c01	-0.37118533
15	0xbd2de0a1	-0.04245055
16	0xbe22fa8b	-0.15915887
17	0x3e884ba0	0.26620197
18	0xbdfb3033	-0.12265053
19	0x3e49b426	0.19697627
20	0xbe4b3d99	-0.19847716
21	0xbd73d3a5	-0.05952801
22	0x3d9e544a	0.077309206
23	0x3dba01f6	0.09082405
24	0x3d9c8e64	0.07644346
25	0x3dbf058c	0.0932723
26	0x3e7d1e55	0.24718602
27	0xbd36f4bd	-0.044666994
28	0x3daa5399	0.08316726
29	0xbdf785f4	-0.120860964
30	0x3e1578a5	0.14596803
31	0x3cbf47e8	0.023349717
32	0xbe00f693	-0.1259406
33	0x3dd55f4b	0.10418566
34	0xbea939a2	-0.33051783
35	0x3ab1ac21	0.0013555327
36	0xbdf51f3e	-0.119688496
37	0xbe74aa98	-0.23893201
38	0xbe46d2a0	-0.19416285
39	0xbe89f164	-0.2694198
40	0xbe0c7c53	-0.13719301
41	0xbe85368a	-0.26018173
42	0xbd565466	-0.052326582
43	0x3dc4e06c	0.096131176
44	0x3ddc5ce5	0.10759906
45	0xbdd91a74	-0.10600749
46	0xbcecabb9	-0.028890477
47	0xbe192bcc	-0.14958113
48	0x3c880210	0.016602546
49	0xbe89cca3	-0.26913938
50	0x3e2106c2	0.15725234
51	0x3dcb3481	0.09922124
52	0xbc7e490c	-0.015520345
53	0x3d82c965	0.06386069
54	0xbe345e28	-0.17614043
55	0xbd550f59	-0.05201659
56	0xbe106933	-0.1410263
57	0x3dc9baf3	0.09850111
58	0xbd35eaca	-0.044413365
59	0x3e88972b	0.26677832
60	0x3db2efc9	0.08737142
61	0x3db601a6	0.08887033
62	0xbe640a62	-0.22269586
63	0x3e2b9815	0.16757233
64	0xbd8e73b3	-0.069556616
65	0x3c8ca8e8	0.017170385
66	0xbdbaad66	-0.091151044
67	0x3e74efa8	0.23919547
68	0xbe5677cd	-0.20944138
69	0xbe081e1e	-0.13292739
70	0x3d0c8184	0.034303203
71	0x3d10fdea	0.0353984
72	0xbdaea774	-0.08528033
73	0xbe1f680f	-0.15567039
74	0x3cfad0fb	0.030617228
75	0x3e3fb459	0.18721141
76	0xbec014b6	-0.375158
77	0xbe116c7a	-0.14201537
78	0xbe2dddfb	-0.1697921
79	0xbdb31e41	-0.08746005
80	0xbe8972cc	-0.26845396
81	0x3e8c4c85	0.2740213
82	0xbeab3d66	-0.3344528
83	0x3d90cf3c	0.07070777
84	0xbe3b8fc9	-0.18316568
85	0xbe8c7b8f	-0.27438018
86	0x3ee89d15	0.45432344
87	0x3bde5607	0.0067851576
88	0xbde1af13	-0.11019721
89	0xbde0a748	-0.10969406
90	0xbd8cae20	-0.06869149
91	0xbe58e506	-0.21181116
92	0x3e22a042	0.15881446
93	0x3d37d47e	0.044880383
94	0x3e53bb57	0.20676933
95	0xbde420cb	-0.11139067
96	0xbdc42fa2	-0.09579398
97	0x3eb8e143	0.3610936
98	0x3d35c6d7	0.04437908
99	0x3e17e5c9	0.1483375
100	0x3e1cc790	0.15310502
101	0x3d8a4a90	0.06752503
102	0x3da8a188	0.08233935
103	0x3b3176c4	0.0027078846
104	0xbd7156ce	-0.058920674
105	0xbe9af63f	-0.30265996
106	0x3e96738f	0.2938504
107	0xbe2767dd	-0.16348214
108	0xbe834eae	-0.25645965
109	0xbe99d9d9	-0.30049017
110	0x3cba5ab8	0.022748336
111	0xbdd10888	-0.10206705
112	0x3e0b90d7	0.13629471
113	0x3d32fbc9	0.043697152
114	0x3d5552ec	0.052081034
115	0xbdf27677	-0.118390016
116	0x3c3bb816	0.011457464
117	0x3dc0ade9	0.09408171
118	0xbe76fd40	-0.24120045
119	0x3d3438e3	0.043999564
120	0xbe9b3f0c	-0.30321538
121	0x3e9dc877	0.30817005
122	0xbe703097	-0.23456036
123	0xbdb884ad	-0.09009681
124	0x3b1beb90	0.002379153
125	0x3ce735c9	0.028223889
126	0x3d103e65	0.035215754
127	0x3da93c3c	0.08263442
128	0x3e73da61	0.23813774
129	0x3e45b093	0.19305639
130	0xbe068149	-0.13135256
131	0x3e47fc10	0.19529748
132	0xbe81dbd7	-0.25363037
133	0x3e5cbbf3	0.21556072
134	0xbdc0670c	-0.09394655
135	0x3ea35a46	0.3190481
136	0xbd90d064	-0.07070997
137	0x3dbc25c1	0.091868885
138	0x3dff3b5a	0.12462492
139	0xbe21e49a	-0.15809861
140	0xbd408c59	-0.047008846
141	0x3c31a83e	0.010843335
142	0x3e88f46c	0.2674898
143	0x3de99dd2	0.11407055
144	0xbdd00797	-0.10157698
145	0xbd7d0734	-0.061774448
146	0xbdb3610a	-0.08758743
147	0xbe127fbc	-0.1430654
148	0xbe539c4c	-0.20665091
149	0xbe68b75d	-0.22726198
150	0xbe7d5ee3	-0.24743228
151	0xbd93149a	-0.07181664
152	0xbc2d878a	-0.010591397
153	0x3c81c51c	0.01584106
154	0x3e924503	0.28568277
155	0xbe868e7c	-0.26280582
156	0xbd95e0ed	-0.07318292
157	0xbe0620e3	-0.13098483
158	0xbd074181	-0.033021454
159	0x3c89e7e3	0.016834205
160	0xbd818fe5	-0.06326274
161	0xbc4f3232	-0.012646245
162	0xbdfde878	-0.123978555
163	0x3e58940e	0.21150228
164	0x3c231dcf	0.009955837
165	0x3e1c5ff9	0.15270986
166	0x3ea1320a	0.3148349
167	0x3ed0e384	0.4079858
168	0x3e18d5bc	0.14925283
169	0xbd27656c	-0.040868208
170	0x3e3709ae	0.17874786
171	0xbc900817	-0.017581983
172	0x3dfaa03f	0.12237596
173	0xbc04ef40	-0.008113682
174	0xbdecf77e	-0.11570643
175	0x3d1d4d12	0.038403578
176	0x3eaa9964	0.33320153
177	0x3edfe3f2	0.43728596
178	0xbd2ccbdd	-0.042186607
179	0xbbffa531	-0.007801675
180	0x3e7df357	0.24799858
181	0xbc297dde	-0.0103449505
182	0xbe8030eb	-0.2503732
183	0xbe45e323	-0.19324927
184	0x3d807887	0.06272989
185	0xbe548172	-0.20752504
186	0x3e113ea4	0.14184052
187	0x3d5fa550	0.054601014
188	0x3df94f79	0.12173361
189	0x3e4b6260	0.19861746
190	0x3e6b8c21	0.23002674
191	0x3e2aacbb	0.16667454
192	0xbcd6332e	-0.026147451
193	0xbd9ce220	-0.076603174
194	0x3e000f8f	0.12505935
195	0xbedb2897	-0.42804405
196	0xbe3ebfc0	-0.18627834
197	0xbe1bd5f9	-0.15218343
198	0xbda0ec3c	-0.07857558
199	0x3ec0e14c	0.37671888
200	0x3dd05620	0.10172677
201	0x3da27bb3	0.0793375
202	0x3e49245e	0.19642779
203	0xbd5318e5	-0.051537413
204	0x3dcf407a	0.1011972
205	0x3e548758	0.20754755
206	0x3d1f0595	0.038823683
207	0x3dbc4a07	0.09193807
208	0xbdad066d	-0.08448491
209	0x3ea0152a	0.31266147
210	0xbdadf5f7	-0.0849418
211	0xbecd4196	-0.400891
212	0xbe82b078	-0.2552526
213	0xbd2f42bc	-0.042788252
214	0xbddcfbcc	-0.10790214
215	0xbd702a3b	-0.058634024
216	0x3e7741ef	0.24146245
217	0xbdd8c79f	-0.1058495
218	0xbd9002e1	-0.07031799
219	0x3de82d3a	0.11336751
220	0x3d5a92fb	0.053362828
221	0xbe1d63a1	-0.15370037
222	0x3f0cd236	0.55008256
223	0xbe9890fb	-0.2979811
224	0xbd7e4e3c	-0.06208633
225	0xbed728a0	-0.42023182
226	0x3d876f09	0.06612975
227	0x3e051e13	0.12999754
228	0x3ee3e87f	0.44513318
229	0xbe648b3e	-0.22318742
230	0x3efd6a51	0.49495175
231	0x3e29bd62	0.1657615
232	0xba860d68	-0.0010227384
233	0x3e1b57c4	0.15170199
234	0xbe23f7e7	-0.16012536
235	0xbd9e1117	-0.077181034
236	0x3df1e9a3	0.11812141
237	0x3e8501b4	0.25977862
238	0x3e8d60b1	0.27612832
239	0x3cac9c8b	0.02107074
240	0xbe17bc7a	-0.14817992
241	0x3c72baa7	0.014815009
242	0x3db06cdb	0.086145125
243	0xbe214577	-0.15749155
244	0x3f009eeb	0.5024249
245	0xbe0181f5	-0.12647231
246	0xbdd8b1fa	-0.10580821
247	0xbe2df07f	-0.16986273
248	0xbddecd09	-0.10878951
249	0x3e19869a	0.14992753
250	0x3d79843e	0.06091713
251	0xbe8e25a8	-0.27763104
252	0xbe98fce3	-0.29880437
253	0x3e0181e7	0.1264721
254	0x3eb174bc	0.34659374
255	0xbe928e0f	-0.28624007

network_body.observation_encoder.processors.0.dense.0.bias f4 [256]
0	0x3c8d760c	0.017268203
1	0x3ba5b24c	0.005056655
2	0xbcc05c58	-0.023481533
3	0x3c44c0a8	0.012008823
4	0x3c31c51e	0.010850219
5	0x3afed8b5	0.0019443246
6	0x3c683463	0.014172646
7	0xb9c4cc88	-0.0003753642
8	0x3c04b342	0.008099379
9	0xb9a58615	-0.0003157115
10	0xbb781475	-0.003785399
11	0xbbbd625c	-0.0057795476
12	0xbc9eb963	-0.019375509
13	0x3c95dd8f	0.018294124
14	0xbc09f3e9	-0.008419969
15	0x3d268406	0.04065325
16	0x3c198f81	0.009372593
17	0x3caa5b7b	0.020795574
18	0x3c0669d5	0.008203943
19	0x3bccc756	0.0062493486
20	0x3a8aac1c	0.0010579857
21	0x3c2993ed	0.01035021
22	0x3d2587bc	0.04041265
23	0xbcb30b80	-0.02185607
24	0x3bd075fc	0.006361721
25	0x3c351d3c	0.011054333
26	0x3c5d4904	0.013506178
27	0x3c0cf974	0.008604396
28	0x3c512c79	0.012766951
29	0xbcb51f06	-0.02210952
30	0x3bc7096b	0.0060741208
31	0xbc4553d4	-0.012043912
32	0xbca7729f	-0.020440398
33	0x3c6ceab4	0.014460254
34	0x3c75001b	0.014953638
35	0xbcc416e2	-0.023936693
36	0xbc6b1047	-0.014347143
37	0x3b987e3e	0.004653721
38	0x3c667362	0.014065595
39	0x3c64d2d2	0.013966279
40	0xbbad1d73	-0.0052830516
41	0x3c11a0f8	0.008888476
42	0x3ca3356b	0.019922933
43	0xbc075e3a	-0.008262211
44	0x3b80f73c	0.0039357226
45	0x3c503bc1	0.012709559
46	0x3cbe8ea8	0.023261383
47	0x3c7d8315	0.015473147
48	0x3d179841	0.037010435
49	0x3b0c1190	0.0021372773
50	0xba74b6a5	-0.00093350775
51	0x3ca2e75c	0.019885711
52	0x3c7339cf	0.014845326
53	0xbc5ff9d3	-0.013670403
54	0xbd555764	-0.052085295
55	0xbcaba896	-0.020954411
56	0x3abb7e54	0.0014304616
57	0xbc1aa60a	-0.009439001
58	0x3bcfc3cf	0.006340481
59	0x3bc4e8e6	0.006009209
60	0x3c6db11a	0.014507556
61	0x3cd11cdf	0.025526462
62	0xbc185f09	-0.009300002
63	0x3c6e24b7	0.014535121
64	0x3c204998	0.009783171
65	0x3cafbea7	0.021453215
66	0x3ae1ecd3	0.0017236717
67	0x3c7fbe10	0.015609279
68	0x3ba22343	0.004948051
69	0x3c9d3610	0.019190818
70	0x3c1600e6	0.009155488
71	0x3cffadab	0.031210741
72	0x399c782a	0.00029844168
73	0x3c928f53	0.017890608
74	0x3bfc6d5b	0.007703466
75	0x3d14d80e	0.03633886
76	0x3b627b5b	0.003455839
77	0xbc5fe744	-0.013665978
78	0x3c39d2fe	0.011341808
79	0x3bdc7df4	0.006728882
80	0xba582bc6	-0.0008246269
81	0x3cb511ac	0.022103153
82	0xbc49e11d	-0.012321738
83	0xbba19ffc	-0.0049324017
84	0x3c1dd161	0.009632439
85	0x3d001c79	0.031277154
86	0x3c84b977	0.016201718
87	0x3b73bd39	0.0037191643
88	0x3cf81834	0.030284978
89	0xba7c84f7	-0.00096328504
90	0xbc72c3ef	-0.014817222
91	0x3c8e80d3	0.017395413
92	0x3b849937	0.004046585
93	0x3bbf2335	0.0058330544
94	0x3cd4d586	0.025980722
95	0xbc2e11d1	-0.010624365
96	0x3ac8d217	0.0015321401
97	0x3c129fa3	0.008949193
98	0x3b888240	0.0041659176
99	0x3ca9b336	0.020715337
100	0x3c5b1ecb	0.013374041
101	0xbcb45992	-0.022015367
102	0x3c9d4390	0.019197255
103	0x3cc46125	0.023972103
104	0xbbdc34f3	-0.006720179
105	0x3cbd2cc3	0.023092633
106	0x3bd8cb09	0.0066160006
107	0xbc8d91cf	-0.017281441
108	0x3cdfa77e	0.027301546
109	0xbcb9b861	-0.022670927
110	0x3ae03b08	0.0017107436
111	0xbc1020f9	-0.008796924
112	0x3ca04130	0.019562334
113	0x3cab4e48	0.02091135
114	0x3cd94426	0.026521754
115	0x3c533c91	0.012892858
116	0xbc87115f	-0.016487775
117	0x3d18f0a0	0.037338853
118	0xbb622a3a	-0.0034510032
119	0xbc977467	-0.018488122
120	0x3c8a8390	0.016908437
121	0x3cb98a45	0.02264894
122	0x3c6e8f9d	0.014560607
123	0x3b8be7c7	0.0042695734
124	0x3be35cdc	0.00693856
125	0x3bd2f30a	0.006437664
126	0x3d124474	0.035709813
127	0xbbc748e5	-0.0060816878
128	0x3a5de69b	0.0008464844
129	0x3ca7ce5e	0.020484146
130	0xbc7057bd	-0.014669356
131	0xbbeb6c33	-0.007184529
132	0xbccdd516	-0.025126021
133	0xbce6ffe4	-0.02819819
134	0x39d862bb	0.0004127229
135	0x3c1683e4	0.009186719
136	0x3c05df04	0.008170847
137	0x3c845312	0.016152892
138	0xbc236d8d	-0.009974849
139	0x3cd5d295	0.02610139
140	0xbc1a472d	-0.009416384
141	0x3c96c0f5	0.018402556
142	0xbbb25239	-0.0054419306
143	0x3cd1d3ea	0.025613744
144	0x3c936f84	0.01799751
145	0x3ac0742b	0.0014683058
146	0xbc4379eb	-0.011930923
147	0x3c885c88	0.016645685
148	0x3cc2e390	0.02379015
149	0x3c81ca70	0.0158436
150	0xbd0386d3	-0.032111
151	0x3cbd77aa	0.02312835
152	0xbb924d51	-0.0044647832
153	0x3caa98a6	0.020824742
154	0x3c8a7e05	0.016905794
155	0x3c445858	0.011983953
156	0xbc8d4432	-0.017244432
157	0x3caa26ec	0.020770513
158	0x3cbbdb13	0.022931611
159	0xbc8d817f	-0.017273663
160	0x3cde196f	0.027111737
161	0x3c183f96	0.009292504
162	0x3cbf5b4b	0.023358962
163	0xbd2458c9	-0.040123735
164	0x3c782e3c	0.015147742
165	0xbc25be48	-0.010116167
166	0x3c5826ba	0.013192827
167	0x3d189d94	0.037259653
168	0x3bda2cf9	0.006658193
169	0x3ca9edb7	0.020743234
170	0x3c1bec51	0.009516791
171	0x3a79ae6e	0.0009524588
172	0x3b0ed074	0.0021791728
173	0xbbaf2df6	-0.005346055
174	0x3cbe059d	0.023196036
175	0x3cc5b146	0.024132382
176	0x3c3461c8	0.011009641
177	0x3c1dcafa	0.009630913
178	0x3c99387d	0.018703694
179	0x3c277251	0.010220126
180	0x3cc395b0	0.023875087
181	0xbb73de2f	-0.003721129
182	0xbcd0a27d	-0.025468105
183	0x3c23b4c5	0.009991829
184	0x3a028748	0.0004979265
185	0x3cbbbce5	0.02291722
186	0xbbc31dd2	-0.0059544826
187	0x3c2fb366	0.010723924
188	0x3c7d3060	0.015453428
189	0x3c8951b2	0.016762588
190	0xbbfaade1	-0.0076501225
191	0x3c21986f	0.009863003
192	0xb83aa748	-4.450165e-05
193	0x3c1c864c	0.009553503
194	0x3d27585c	0.04085575
195	0x3a12f7c3	0.00056063774
196	0xbce74dff	-0.028235434
197	0xbb901db1	-0.0043980707
198	0x3ca0164e	0.019541886
199	0xbc7ab15d	-0.015301076
200	0xbbf7df14	-0.007564435
201	0x3ca4c7ef	0.020114867
202	0xbbfeda69	-0.0077775014
203	0x3b81a7e5	0.003956782
204	0x39f9b154	0.000476251
205	0xbb2bf310	-0.0026237406
206	0xbc567f97	-0.013091943
207	0x3cb2f828	0.021846846
208	0x3c66ad0a	0.014079342
209	0x3aca6297	0.0015440759
210	0x3c2ea934	0.010660458
211	0xbc2e7e0f	-0.010650172
212	0x3c99b7f2	0.01876447
213	0xbba7d3b8	-0.0051216744
214	0x3b542e08	0.003237607
215	0x3c37a415	0.011208554
216	0xbac3344f	-0.0014892909
217	0xbc02e1e6	-0.007988429
218	0xbc16fa7a	-0.009214992
219	0xbc1682e2	-0.009186478
220	0x3c3cb7df	0.011518448
221	0xbc8485db	-0.016177109
222	0x3c9cd5d9	0.01914494
223	0xbca783ff	-0.020448683
224	0xbb74f434	-0.0037377002
225	0x3b3fb33f	0.0029251126
226	0x3ca97d87	0.020689739
227	0x3b476d96	0.0030430309
228	0x3c86bb91	0.01644686
229	0x3c799b50	0.015234783
230	0x3d0fac9e	0.03507673
231	0x3c61b581	0.013776184
232	0xba3227c6	-0.0006796088
233	0x3c4a79fd	0.012358186
234	0x3c99bdec	0.01876732
235	0xbbe632e6	-0.0070251105
236	0x3b070f71	0.002060857
237	0xbd03c46b	-0.03216974
238	0x3c6e2cd0	0.014537051
239	0x3c8c96c7	0.01716174
240	0x3ac1db60	0.001479011
241	0x3d04a9c9	0.032388482
242	0xbc2c7681	-0.0105263
243	0x3c599c29	0.01328186
244	0x3cbfc605	0.023409853
245	0x3aae5505	0.0013300484
246	0x3c3cbe47	0.011519975
247	0x3c8600eb	0.01635786
248	0x3c5fbbbc	0.013655599
249	0x3c5f8d28	0.013644494
250	0xbbd1ed3b	-0.006406454
251	0xbc9b8e11	-0.018988641
252	0x3c15d930	0.00914602
253	0x3c31d75c	0.010854568
254	0x3cc781c5	0.024353871
255	0x3a83a788	0.0010044435

network_body.observation_encoder.processors.1.normalizer.running_mean f4 [8]
0	0xbd329a21	-0.04360402
1	0x356a7e3a	8.7355477e-07
2	0xbcc33df7	-0.023833258
3	0x416ff672	14.997667
4	0xbd03cf02	-0.03217984
5	0xbd4c2139	-0.04983637
6	0xbd0a0e72	-0.033705182
7	0x3f5ead07	0.8698277

network_body.linear_encoder.seq_layers.0.weight f4 [256, 264]
0	0x3cd14a24	0.025548048
1	0x3d9d1fc5	0.07672075
2	0xbc17fab3	-0.00927608
3	0xbc2fa150	-0.010719612
4	0xbcea93fa	-0.028635014
5	0xbd132d7d	-0.035932053
6	0xbd18824b	-0.037233632
7	0x3dbb4201	0.091434486
8	0x3c11622e	0.0088735055
9	0x3d0b9c64	0.034084693
10	0xbd2770a6	-0.040878914
11	0x3cd86fb3	0.02642045
12	0xbc1f8806	-0.00973702
13	0xbcff1338	-0.031137094
14	0x3d312dcf	0.043256577
15	0xbd0bde1a	-0.03414736
16	0xbab50846	-0.001381167
17	0x3e07b190	0.13251328
18	0xbdf2cbb6	-0.11855261
19	0xbc8a1bbb	-0.016858926
20	0x3c81e9b8	0.015858516
21	0x3e023a93	0.12717657
22	0x3c11e46e	0.00890456
23	0x3d33d7da	0.043907024
24	0xbdeac690	-0.11463654
25	0xbc9d2562	-0.019182865
26	0xbc084c07	-0.008318908
27	0x3e01b71e	0.1266751
28	0x3d4acbe9	0.04951087
29	0xbc2bbb9f	-0.010481744
30	0xbd0fb221	-0.035081986
31	0x3cea206e	0.028579917
32	0xbd8c138a	-0.06839664
33	0x3c35f0eb	0.011104803
34	0x3d3e4d49	0.046460424
35	0x3d925c76	0.07146542
36	0x3cbb10c1	0.022835137
37	0xbc7a3a02	-0.015272619
38	0x3d0bad6a	0.034100927
39	0xbdd367f1	-0.103225596
40	0x3d488496	0.04895457
41	0x3d756d33	0.059918594
42	0x3d5793ff	0.052631374
43	0xbba4b15a	-0.0050260248
44	0xbd4a4a5f	-0.049387332
45	0x3d11147c	0.035419926
46	0xbd9cdfc7	-0.0765987
47	0xbd82d873	-0.06388941
48	0xbc7e346c	-0.015515428
49	0x3c965e94	0.018355645
50	0xbd441a59	-0.04787669
51	0x3d39468b	0.04523329
52	0x3c5d8e02	0.013522627
53	0x3bfb65cb	0.007672047
54	0xbd3aa48d	-0.045567084
55	0x3dd3e493	0.103463314
56	0xbe2ebd4f	-0.17064403
57	0x3ce58790	0.028018743
58	0x3d62d268	0.05537644
59	0xbdc71f39	-0.09722752
60	0xbc53244b	-0.012887071
61	0x3dac4111	0.08410848
62	0x3dd5dfda	0.10443087
63	0x3cd9b42b	0.026575169
64	0x3d2b3bc6	0.04180505
65	0x3b51a745	0.003199057
66	0xbd8e4cb5	-0.069482245
67	0x3d66762b	0.056265038
68	0x3d13ec7a	0.036114193
69	0x3c093790	0.008375064
70	0xbdb268e9	-0.08711416
71	0xbdb93725	-0.09043721
72	0x3d0c2f7e	0.03422498
73	0xbc2dd21f	-0.010609179
74	0xbc2b4a47	-0.010454721
75	0xbc7e3035	-0.015514423
76	0x3cf35eec	0.029708348
77	0xbd4c6e8d	-0.049910117
78	0x3cbaabe3	0.02278704
79	0xbbdcff18	-0.0067442767
80	0x3c7013f2	0.014653193
81	0x3cd3aef6	0.025840264
82	0x3e1ad9e0	0.15122175
83	0xbd791d57	-0.060818996
84	0xbcb74680	-0.022372484
85	0x3d927b3b	0.071524106
86	0x3df2ab43	0.11849072
87	0x3d20663c	0.03916
88	0xbd178ef2	-0.037001558
89	0xbc9909d4	-0.018681444
90	0xbdeaec55	-0.11470858
91	0x3d58d31c	0.052935705
92	0x3d14e440	0.03635049
93	0x3a403489	0.0007332047
94	0xbc84d9b0	-0.016217083
95	0x3c61d7e0	0.013784379
96	0xbcedd677	-0.029032929
97	0x3c70efb6	0.014705589
98	0x3ccef7d2	0.025264654
99	0x3e271b07	0.16318904
100	0xbdc6eba4	-0.09712914
101	0xbd4e58b7	-0.050377574
102	0xbda7484a	-0.08168085
103	0xbcfa5516	-0.03055815
104	0x3d2a0451	0.041508023
105	0x3da0bcdd	0.07848523
106	0xbd6286b5	-0.055304248
107	0x3e09e5d1	0.13466574
108	0x3d863240	0.06552553
109	0x3da57220	0.08078408
110	0x3da1e6f0	0.07905376
111	0x3d0efbd0	0.034908116
112	0x3e0a6450	0.13514829
113	0x3b1bbae5	0.002376252
114	0x3d97a48a	0.0740443
115	0xbc598d69	-0.013278344
116	0xbb6ba93d	-0.0035959028
117	0xbda3b8c3	-0.07994225
118	0xbc247c5c	-0.010039415
119	0xbd0c8617	-0.034307566
120	0x3ccab8d1	0.02474633
121	0x3e042878	0.12906063
122	0x3d05cf51	0.032668415
123	0x3d6d499d	0.05793153
124	0xbe00a12c	-0.12561482
125	0x3d4c7cb1	0.049923602
126	0xbb967649	-0.0045917374
127	0xb6d3abbf	-6.308284e-06
128	0xbdcd9ea6	-0.100400254
129	0xbc2030db	-0.009777273
130	0xbda4c4b9	-0.08045334
131	0x3d70d876	0.058800183
132	0x3dc48d65	0.09597281
133	0x3d014a8b	0.03156523
134	0x3cc61be9	0.02418323
135	0xbde22c15	-0.11043564
136	0x3d142c0e	0.036174826
137	0x3d23e414	0.040012434
138	0x3b01acf7	0.0019786933
139	0x3d055628	0.032552868
140	0xbcc9506f	-0.024574487
141	0x3da1ad8e	0.07894431
142	0xbd566158	-0.052338928
143	0x3d4f4dc2	0.050611265
144	0x3d10480f	0.03522497
145	0x3dcc54d3	0.099771164
146	0x3cb7e08c	0.02244594
147	0xbe180361	-0.14845039
148	0x3d621d0d	0.055203486
149	0x3d424e3a	0.047437884
150	0xbcef528e	-0.02921417
151	0x3d3a5f47	0.04550102
152	0x3d0e4677	0.03473517
153	0xbc3e9015	-0.0116310315
154	0xbd4dc31e	-0.050234906
155	0xbd2e5e6a	-0.04257051
156	0xbd2417c3	-0.040061723
157	0x3de055a6	0.10953836
158	0xbbf60e28	-0.007509012
159	0x3be9d47e	0.0071359267
160	0x3d12ab8b	0.035808127
161	0xbd5a1086	-0.053238414
162	0xbd888ec0	-0.066678524
163	0x3c7c8e3e	0.015414773
164	0x3d057a0a	0.03258709
165	0x3e1db1e6	0.15399894
166	0x3d4a5586	0.049397968
167	0x3dcbeddd	0.09957478
168	0xbdffe3b9	-0.124946065
169	0x3aaa49b7	0.001299194
170	0xbd50354d	-0.05083208
171	0xbce205bd	-0.027590627
172	0x3d8406e0	0.06446624
173	0x3d959c6e	0.07305227
174	0x3d7cd3fe	0.06172561
175	0xbd0eafa2	-0.034835465
176	0x3d4bb44a	0.049732484
177	0x3d8b663a	0.068066075
178	0x3b28105c	0.0025644517
179	0x3da863ca	0.08222158
180	0xbe1516b4	-0.14559442
181	0xbd660e1e	-0.056165807
182	0xbc5e4fcb	-0.013568829
183	0xbd35c5d8	-0.04437813
184	0x3ddf3c2d	0.109001495
185	0x3d595cc8	0.053067
186	0x3ca543e8	0.020173982
187	0xbd9720b5	-0.07379285
188	0x3d5d2e9c	0.05399953
189	0x3d3669c4	0.04453446
190	0xbdc415e5	-0.095744886
191	0xbd87c056	-0.06628482
192	0xbd20aa2b	-0.039224785
193	0x3d5f37c7	0.054496553
194	0xbda83217	-0.08212679
195	0x3dc4b5d7	0.09604996
196	0xbcd84a4c	-0.026402615
197	0xbd74d967	-0.059777644
198	0x3c2c57d0	0.010518983
199	0xbe19af28	-0.15008223
200	0x3bceed7f	0.006314933
201	0x3b6ef4ae	0.0036461758
202	0xbbad8724	-0.005295651
203	0xbcc005f2	-0.023440335
204	0x3d93962f	0.072063796
205	0x3d89c451	0.067268975
206	0x3d21312f	0.039353546
207	0x3d78558a	0.06062845
208	0xbaeb6de7	-0.0017961831
209	0xbd374c36	-0.044750415
210	0xbd3627d5	-0.04447158
211	0xbd16d8ca	-0.03682784
212	0x3deadad9	0.11467523
213	0xbc9d8056	-0.019226234
214	0xbdb03ac6	-0.0860496
215	0xbd86b7e2	-0.065780416
216	0xbdc96319	-0.098333545
217	0x3d5cbca7	0.05389085
218	0xbddc8242	-0.10767032
219	0xbca2fa4e	-0.019894745
220	0xbd7ae7d5	-0.06125625
221	0xbc5bd767	-0.013418055
222	0x3d1f5008	0.038894683
223	0xbc653adc	-0.013991084
224	0x3c930660	0.017947376
225	0x3dc36fa0	0.09542775
226	0xbd3a18d7	-0.045433845
227	0xbd6ce0ab	-0.057831448
228	0xbd9cb11c	-0.076509684
229	0x3d2309f6	0.03980442
230	0xbc9f5595	-0.019449988
231	0x3be03447	0.0068421694
232	0xbcea9d99	-0.028639602
233	0xbb095bfc	-0.0020959368
234	0xbc9b37fc	-0.018947594
235	0xbda7a475	-0.081856646
236	0xbc4951b4	-0.012287546
237	0x3d38c8ae	0.045113258
238	0xbb5ac90d	-0.0033383996
239	0xbd263012	-0.040573187
240	0x3ca5cbe7	0.02023883
241	0x3d94e592	0.072703496
242	0x3d32f9f6	0.043695413
243	0x3cd9bc02	0.026578907
244	0xbcfc169a	-0.030772496
245	0x3d1bc566	0.03803005
246	0x3e00f284	0.12592512
247	0x3d3566ee	0.044287615
248	0x3d892686	0.06696801
249	0x3b74b5df	0.003733985
250	0x3d0155bf	0.031575914
251	0xbc81c5a9	-0.015841322
252	0x3d69393e	0.056939356
253	0x3dea21e6	0.11432247
254	0xbc89c6b5	-0.016818384
255	0xbd558f91	-0.05213887

network_body.linear_encoder.seq_layers.0.bias f4 [256]
0	0x3c86d3d3	0.016458428
1	0xbce02447	-0.027361048
2	0x3cadb3fd	0.02120399
3	0xbbfbf370	-0.007688932
4	0xbd06c68e	-0.0329042
5	0x3c1d7f47	0.009612865
6	0x3b9a7ae5	0.004714357
7	0x3cd46cc9	0.025930779
8	0xbc6b03ba	-0.01434415
9	0x3afc8da0	0.0019268282
10	0xbb2cbb24	-0.0026356662
11	0x3c772cae	0.015086336
12	0x3b8ea594	0.0043532345
13	0x3c62ad0a	0.013835201
14	0x3ac521ec	0.0015040017
15	0x3c64f11e	0.013973502
16	0xbd10333e	-0.03520512
17	0x3caef9c4	0.021359332
18	0x3c29e98c	0.010370623
19	0xbcc86c5b	-0.02446573
20	0x3c5d87a0	0.013521105
21	0xbbc0410a	-0.0058671283
22	0x3c917807	0.017757429
23	0x3c865b06	0.016400825
24	0x3c8a2089	0.016861217
25	0x3b01b1bb	0.0019789774
26	0x3c233d72	0.00996338
27	0xbcc6353c	-0.024195306
28	0x3c287af7	0.010283223
29	0xbb592d4e	-0.0033138576
30	0x3a69fa4d	0.00089255424
31	0xbaae467e	-0.0013296155
32	0x3c21e8c5	0.009882157
33	0xbc715f08	-0.01473213
34	0x3c56ea17	0.013117335
35	0x3c976497	0.018480582
36	0x3aefeb2d	0.0018304341
37	0x3ba1038c	0.004913753
38	0x3c2e5000	0.010639191
39	0xbca161db	-0.019699981
40	0xbc956b14	-0.018239535
41	0x3c285380	0.010273814
42	0xba1077df	-0.0005511026
43	0xbc985685	-0.018595943
44	0x3b401959	0.0029311983
45	0x3c535fd8	0.012901269
46	0x3cb3a588	0.021929517
47	0x3bf2e9f9	0.0074131456
48	0x3c7ecf4d	0.015552354
49	0x3c598d9c	0.013278391
50	0xbc8460d2	-0.016159449
51	0xbc0302ff	-0.00799632
52	0xbc72793d	-0.014799413
53	0xbc615ce6	-0.013755059
54	0xbd22c3dc	-0.039737567
55	0x3ccb6d98	0.024832532
56	0x3c029443	0.007969919
57	0x3c06a4d3	0.008218008
58	0xbd06fdd5	-0.032956917
59	0x3aac2dde	0.0013136228
60	0xbba5dbc9	-0.005061601
61	0xbc14e5ee	-0.009088023
62	0x3c32092e	0.010866446
63	0x3b2f3e14	0.0026739882
64	0xbccb6366	-0.02482767
65	0x3b45a85b	0.0030160162
66	0xbc1650ee	-0.009174569
67	0x3cbb2031	0.022842498
68	0xba8cf2c7	-0.0010753506
69	0x3cce2cc9	0.02516784
70	0x3cb28739	0.021792995
71	0xbca25a66	-0.019818496
72	0xbc222a01	-0.00989771
73	0x3ca4be59	0.020110296
74	0xbc75eb60	-0.015009731
75	0x3cb0a6ed	0.021563971
76	0x3c860685	0.01636053
77	0x3c16e270	0.00920926
78	0x3cb1eade	0.021718439
79	0x3c09fc7b	0.008422012
80	0x3ca6f187	0.020378841
81	0xbcb4e4e8	-0.022081807
82	0x3b2aed0e	0.0026081237
83	0x3c84fa88	0.016232744
84	0x3ca21482	0.01978517
85	0x3c796deb	0.01522396
86	0x3c445403	0.011982921
87	0xbc8f76c8	-0.017512694
88	0x3c0d588a	0.008627066
89	0xbcf4f3ed	-0.02990147
90	0x3c216a4d	0.009852004
91	0xbbed52b6	-0.007242526
92	0xbc774e30	-0.015094325
93	0xbc18e012	-0.009330766
94	0x3b75f2f1	0.0037528838
95	0x3c36e1f7	0.011162273
96	0x3c7a6bd7	0.0152845
97	0x3ce3cf6b	0.027808866
98	0x3c7d43c5	0.015458052
99	0x3c98ee68	0.018668368
100	0x3c478da1	0.012179763
101	0x3c88e6dd	0.016711647
102	0xbce214ed	-0.027597869
103	0xba07a933	-0.0005175054
104	0xba83e300	-0.0010062158
105	0x3c747fdc	0.014923062
106	0x3ca1c822	0.019748751
107	0x3c3948fb	0.011308904
108	0x3c91aed8	0.017783567
109	0xbd1136b9	-0.03545258
110	0xbcd7e428	-0.02635391
111	0x3c3df109	0.011593112
112	0x3c3704dd	0.011170593
113	0x3cb9ac62	0.022665206
114	0x3cb52c07	0.02211572
115	0x3baa37a5	0.0051946216
116	0x3be32154	0.0069314633
117	0xbcdcc9cc	-0.026951693
118	0xbca787c5	-0.020450482
119	0x3cd03bdb	0.025419166
120	0xbb191d19	-0.002336329
121	0x3c5f03c9	0.013611742
122	0x399a5716	0.00029438053
123	0xbba10743	-0.0049141957
124	0x3beef9f5	0.007292981
125	0x3c85d334	0.016336061
126	0x3c7aeeec	0.0153157525
127	0xbb890e5c	-0.00418262
128	0x3cbc4fc3	0.022987252
129	0x3c15db0d	0.009146464
130	0x3ce6c6d5	0.028170982
131	0x3c5d2995	0.013498683
132	0x3cad1ade	0.021130975
133	0x3c5f5cff	0.013633012
134	0x3aa24bee	0.0012382248
135	0xbb0af650	-0.0021203943
136	0xbabb9ae6	-0.0014313131
137	0x3ca1c96b	0.019749364
138	0xbca01231	-0.019539924
139	0xbc415865	-0.01180086
140	0x3cacf814	0.021114387
141	0xbcacb67f	-0.021083115
142	0xbc2886da	-0.010286057
143	0x3c99822c	0.018738829
144	0x3ca66329	0.020310955
145	0xbc55289e	-0.013010172
146	0x3c06e786	0.00823391
147	0xbc9f9198	-0.019478604
148	0x3cb7f207	0.022454275
149	0x3c0c7ad6	0.008574208
150	0xbc27b61b	-0.010236288
151	0x3ba5fb5a	0.005065364
152	0x3bb7221b	0.0055887825
153	0x3c8314f3	0.0160012
154	0x3bb0efea	0.0053996937
155	0x3b5f4629	0.0034068918
156	0x3c5089b8	0.012728147
157	0x3cc1d171	0.02365944
158	0x3c61f551	0.013791398
159	0xbc908ca3	-0.017645186
160	0xbbf221af	-0.0073892693
161	0x3ce2777b	0.027644863
162	0xbacc5f2a	-0.0015592326
163	0xbbf62e9b	-0.00751288
164	0xbc01db66	-0.007925844
165	0x3c7bdd64	0.015372608
166	0x3c50bc2c	0.012740176
167	0x3c7a7c6d	0.0152884545
168	0xbca265e4	-0.019823976
169	0xbd0ad0ae	-0.03389042
170	0x3c0f2899	0.008737707
171	0x3c729c1c	0.014807727
172	0x3cd54409	0.026033418
173	0x3c8902a7	0.016724898
174	0x3c9467b1	0.01811585
175	0x3ca7c455	0.02047936
176	0x3c9bc53c	0.019014947
177	0xbc32c414	-0.0109110065
178	0xbc28e205	-0.0103077935
179	0xbbd07ac4	-0.006362291
180	0x3c2b9651	0.01047285
181	0xbc708118	-0.014679216
182	0x3c18113a	0.009281451
183	0xbb1555ee	-0.0022786814
184	0xbc7cc23b	-0.0154271675
185	0xbccf2206	-0.025284778
186	0xbbbbe946	-0.0057345955
187	0x3c424df4	0.011859406
188	0x3c3720e5	0.011177276
189	0x3c832977	0.016010983
190	0x3b860fc1	0.0040912335
191	0x3ba07b21	0.0048974906
192	0x3abc984b	0.0014388649
193	0xbcf6a5cb	-0.030108353
194	0x3c1fb176	0.0097469
195	0x3c90cbee	0.017675366
196	0xbc45609a	-0.012046957
197	0x3c296fad	0.010341567
198	0xba34660e	-0.00068816624
199	0xbcc29ce8	-0.02375646
200	0x3ccd6d77	0.025076611
201	0x3cd48383	0.025941616
202	0xba190e55	-0.00058386225
203	0xbcc8d7ee	-0.024517026
204	0xbd01ea0e	-0.031717353
205	0xbbc53100	-0.006017804
206	0xbc52701d	-0.012844113
207	0xbc7453d3	-0.014912563
208	0xbc9cc35a	-0.01913612
209	0x3b244677	0.0025066414
210	0x3b707b98	0.0036694761
211	0x3c90dfdc	0.01768487
212	0x3cc089bc	0.023503177
213	0xbc093846	-0.008375233
214	0x3ca3d64b	0.019999644
215	0x3c03f248	0.00805337
216	0xbc4d510b	-0.012531529
217	0x3b8261f0	0.00397896
218	0xb9476417	-0.00019015405
219	0xbc6258e2	-0.013815137
220	0x3c56e9fb	0.013117309
221	0xba98e1b9	-0.001166395
222	0x3bf99f3f	0.0076178606
223	0xbafbe128	-0.0019216882
224	0xbc841aba	-0.016126025
225	0x3c6ff125	0.014644896
226	0x3d069143	0.032853376
227	0x3c3467f7	0.011011115
228	0xbc2557bf	-0.010091721
229	0x3cd94b83	0.026525265
230	0x3c808d7c	0.015692465
231	0x3c998b65	0.018743226
232	0x3c273423	0.010205301
233	0x3c6857da	0.014181102
234	0x3ce565e8	0.028002694
235	0xbcd7a349	-0.026322978
236	0x3aa1ad6d	0.001233501
237	0xbade0813	-0.0016939662
238	0x3b4b2d54	0.003100236
239	0x3c79851f	0.015229492
240	0xbcb62c5e	-0.022237953
241	0xbd0512e3	-0.032488715
242	0xbc73a1c5	-0.014870112
243	0x3c498b81	0.012301327
244	0xbc2eb797	-0.010663888
245	0xbc206b59	-0.009791219
246	0x3c9f5586	0.01944996
247	0x3ba0691c	0.0048953425
248	0x3caa7e82	0.020812277
249	0xbbcc281d	-0.006230368
250	0xb9e9f2bb	-0.0004462207
251	0x3c0eba66	0.008711433
252	0x3c22b501	0.00993085
253	0x3c8fd975	0.017559746
254	0x3ccb34c5	0.024805436
255	0x3c8d4d71	0.017248841

network_body.linear_encoder.seq_layers.2.weight f4 [256, 256]
0	0x3c8f84b9	0.017519342
1	0xbda5a5b3	-0.08088245
2	0x3c5d2cd5	0.013499458
3	0xbdb607bc	-0.08888194
4	0xbded65ff	-0.1159172
5	0xbdccfac1	-0.10008765
6	0xbcfea6ea	-0.03108545
7	0xbcc347e5	-0.023837993
8	0xbd2eafba	-0.042648055
9	0xba2a1c5c	-0.0006489211
10	0xbe17061f	-0.14748429
11	0x3dc6ebd4	0.097129494
12	0xbbed4b7f	-0.007241666
13	0x3e12ba15	0.14328797
14	0xbcba3bee	-0.022733655
15	0x3db8ef2e	0.09029995
16	0xbc85e56c	-0.016344748
17	0x3dd2b971	0.102892764
18	0xbd09b5ed	-0.033620764
19	0xbd7eb76e	-0.06218665
20	0x3cf8f143	0.03038848
21	0x3d0d6b65	0.034526248
22	0x3ab0329d	0.0013442818
23	0x3d314949	0.04328278
24	0x3a871896	0.001030701
25	0x3c949bb4	0.018140651
26	0xbdab33d4	-0.08359495
27	0xb9da35fc	-0.00041620422
28	0xbb4e5f6a	-0.0031489977
29	0x3d41a633	0.04727764
30	0xbe09a765	-0.13442762
31	0xbde78b24	-0.11305836
32	0x3a90d7c1	0.0011050628
33	0xbca0abd2	-0.01961318
34	0x3d8c9963	0.06865194
35	0x3d923411	0.07138837
36	0x3dda0dd5	0.106471695
37	0xbd61c5a8	-0.05512014
38	0xbd2a486e	-0.04157298
39	0xba88a81c	-0.0010426077
40	0xbdbc35c7	-0.09189945
41	0x3d9df1ed	0.07712159
42	0xbd5dfb81	-0.05419493
43	0x3cbefe4b	0.023314616
44	0x3d6d643a	0.05795691
45	0x3e28ad5c	0.16472381
46	0x3dcec89b	0.10096856
47	0x3de344f5	0.11097137
48	0xbc902418	-0.017595336
49	0x3dd7865d	0.10523675
50	0xbded8eaf	-0.1159948
51	0xbd3d5231	-0.046220962
52	0xbc080da1	-0.008304031
53	0x3a9574b3	0.0011402577
54	0xbd3536c2	-0.044241674
55	0x3da6b8e9	0.081407376
56	0xbcb86745	-0.02251018
57	0x3e3751ca	0.17902294
58	0x3cf07085	0.029350528
59	0xbdd8be7e	-0.105832085
60	0xbdb37eba	-0.087644055
61	0xbc8c4ae2	-0.01712555
62	0xbcda34ac	-0.026636444
63	0x3cc31a67	0.0238163
64	0xbd7e1ca0	-0.062039018
65	0x3c578798	0.013154887
66	0x3c280e4b	0.010257314
67	0xbcc52a36	-0.02406798
68	0xbc1bd2f9	-0.009510749
69	0xbd314a92	-0.043284006
70	0xbd3bf861	-0.04589117
71	0x3d16f7d3	0.036857437
72	0x3c83e5ad	0.016100729
73	0x3d510860	0.051033378
74	0xbd36de7a	-0.044645764
75	0xbc664059	-0.014053428
76	0x3dcb1429	0.099159546
77	0x3dcc6c52	0.09981598
78	0xbd615901	-0.05501652
79	0x3e3949ac	0.1809451
80	0xbc48c172	-0.012253152
81	0xbc9cc843	-0.019138461
82	0xbc289eba	-0.01029175
83	0x3d501673	0.05080266
84	0x3e2b8de6	0.16753349
85	0xbd830416	-0.06397264
86	0x3d580435	0.052738387
87	0x3cde38a6	0.027126621
88	0x3e0e250a	0.13881317
89	0xbd845c2d	-0.06462894
90	0x3d7f1896	0.062279306
91	0xbd9741b2	-0.07385577
92	0xbddc20a5	-0.10748414
93	0xbd843183	-0.06454756
94	0xb9f90cbe	-0.00047502475
95	0xbd3ad808	-0.04561618
96	0x3d1fb4c0	0.038990736
97	0x3d5e3884	0.054253116
98	0x3bf06573	0.0073363124
99	0xbde58689	-0.11207301
100	0x3d871cee	0.06597315
101	0x3c88853c	0.016665094
102	0xbc172acf	-0.009226515
103	0x3d6e72f5	0.0582151
104	0xbe03f4ce	-0.12886354
105	0xbc962243	-0.018326884
106	0x3cf9629a	0.030442525
107	0xbd6d41b0	-0.057923973
108	0x3c7a979b	0.015294935
109	0xbdeef137	-0.11667102
110	0x3b3a3f2a	0.0028418996
111	0xbc3bdf94	-0.011466879
112	0x3e170919	0.14749564
113	0xbd9ea54f	-0.07746374
114	0xbdd7f554	-0.105448395
115	0xbcdfa31e	-0.02729946
116	0xbd32297f	-0.043496605
117	0xbd2c5042	-0.042068727
118	0xbb118822	-0.0022206386
119	0x3d166e9f	0.03672659
120	0xbe3cd2d8	-0.18439806
121	0x3da8acd7	0.082360916
122	0xbd9278d8	-0.07151955
123	0x3d0cf753	0.034415554
124	0xbd204fd4	-0.03913863
125	0x3da5341a	0.08066578
126	0x3ca38d4a	0.019964833
127	0xbd2079b5	-0.03917857
128	0xbcc60647	-0.024172915
129	0xbd180eb8	-0.037123412
130	0xbcb183a5	-0.021669218
131	0x3d54016a	0.05175916
132	0x3c5420c6	0.012947267
133	0xbc29f37b	-0.010372992
134	0xbcd50908	-0.026005283
135	0xbccd0172	-0.025025103
136	0xbcfe74d7	-0.031061573
137	0xbcb20b77	-0.021733982
138	0x3d16ee4a	0.036848344
139	0xbd30e940	-0.043191195
140	0x3d8ae477	0.067818575
141	0xbdc1d7c3	-0.094649814
142	0x3e0604ca	0.13087764
143	0xbd3db429	-0.046314392
144	0x3db2b1d3	0.087253235
145	0xbd12d2e3	-0.03584565
146	0x3d86c8b7	0.06581252
147	0x3aee4fad	0.0018181704
148	0x3e095ca5	0.13414247
149	0x3cc0bb0d	0.023526693
150	0xbccfc370	-0.025361747
151	0xbc43bf28	-0.011947431
152	0x3c339356	0.010960421
153	0x3db20c74	0.086937815
154	0x3dd1314f	0.10214483
155	0x3abf415a	0.001459162
156	0xbd5f8b5c	-0.054576263
157	0x3dd554b9	0.1041655
158	0xbda890a2	-0.082307115
159	0xbc807d8b	-0.015684864
160	0xbdc50cf2	-0.0962161
161	0xbceabbe6	-0.02865405
162	0xbd3ad81e	-0.04561626
163	0xbd192897	-0.037392225
164	0x3b8e3c8b	0.0043407134
165	0xbc07f7d4	-0.008298833
166	0x3d71bed0	0.059019864
167	0xbd52138a	-0.051288165
168	0x3d3fbf6e	0.04681342
169	0xbddeb05d	-0.108734824
170	0x3d0ed0cd	0.034867097
171	0xbd3b2ae7	-0.04569521
172	0x3db81ffb	0.08990475
173	0xbd3fe811	-0.046852175
174	0x3cb187cf	0.021671204
175	0x3d065187	0.032792594
176	0xbb61cea4	-0.0034455443
177	0x3d23d1dd	0.039995063
178	0xbd9d286a	-0.07673724
179	0x3dbcd31d	0.09219954
180	0x3d978fb1	0.07400454
181	0xbc8f0a46	-0.017460953
182	0x3d82b16b	0.06381496
183	0xbda0ed58	-0.0785777
184	0x3c2b5815	0.010458012
185	0x3cfb5ae8	0.030682996
186	0xbd14bc66	-0.036312483
187	0x3c5f6590	0.013635054
188	0xbcdad416	-0.026712459
189	0xbd3e3e80	-0.046446323
190	0x3e2e3827	0.17013608
191	0x3ddf740e	0.109108075
192	0x3d20a832	0.039222904
193	0xbcd5f42b	-0.026117405
194	0x3d3986e2	0.04529465
195	0x3aca82b0	0.0015450325
196	0x3d06452c	0.03278081
197	0x3cb69908	0.022289768
198	0x3d86d81b	0.065841876
199	0x3caf91de	0.02143186
200	0x3d72d9ee	0.059289865
201	0x3dc5d7ca	0.09660299
202	0x3d3954fc	0.045247063
203	0x3cc082ad	0.023499811
204	0x3e1fa178	0.15588939
205	0x3cf175f1	0.029475184
206	0x3d7126d8	0.058874935
207	0x3b927899	0.004469943
208	0x3d3831dd	0.04496943
209	0x3da45d9c	0.08025667
210	0xbdc6936c	-0.09696087
211	0xbdacb704	-0.08433345
212	0xbc883025	-0.01662452
213	0x3c275362	0.010212751
214	0x3a3ce034	0.000720504
215	0x3d29db47	0.041468885
216	0xbd62f27f	-0.055407044
217	0xbdc6febb	-0.09716555
218	0x3d709729	0.058737908
219	0x3de960fb	0.11395451
220	0xbd5302e1	-0.051516417
221	0xbde7a16d	-0.113100864
222	0x3d2a5792	0.04158742
223	0xbc345a55	-0.011007865
224	0x3d50a1ca	0.050935544
225	0x3bc117c5	0.005892726
226	0x3d5153dc	0.051105365
227	0x3cb82fe0	0.022483766
228	0xbdaa4f5e	-0.08315919
229	0x3d313885	0.04326679
230	0x3e006acd	0.12540741
231	0xbd8aa891	-0.06770433
232	0xbce54d29	-0.027990894
233	0x3d9f409d	0.07775996
234	0xbd4739ae	-0.048638992
235	0x3d7666ab	0.060156506
236	0xbc466599	-0.012109184
237	0x3dc6f7e9	0.09715254
238	0x3dff4f16	0.12466256
239	0x3c044dbe	0.008075176
240	0xbdc29fbc	-0.09503123
241	0xbd8bd939	-0.06828541
242	0xbddb49ad	-0.10707412
243	0x3d7ce2a0	0.061739564
244	0xbb43c110	-0.0029869713
245	0xbbe33fbd	-0.0069350884
246	0xbdbb436f	-0.09143721
247	0x3d1e4c59	0.03864703
248	0xbda2e873	-0.079544924
249	0xbdade115	-0.084901966
250	0x3d6a692d	0.05722921
251	0xbd7edda9	-0.06222311
252	0x3c13e883	0.009027603
253	0xbd09464d	-0.03351431
254	0xbc0d8bcd	-0.008639288
255	0x3d470064	0.048584357
